{"format": "graph-model", "generatedBy": "2.1.0", "convertedBy": "TensorFlow.js Converter v1.7.2", "userDefinedMetadata": {"signature": {"inputs": {"resnet50_input:0": {"name": "resnet50_input:0", "dtype": "DT_FLOAT", "tensorShape": {"dim": [{"size": "-1"}, {"size": "64"}, {"size": "64"}, {"size": "3"}]}}}, "outputs": {"Identity:0": {"name": "Identity:0", "dtype": "DT_FLOAT", "tensorShape": {"dim": [{"size": "-1"}, {"size": "10"}]}}}}}, "modelTopology": {"node": [{"name": "resnet50_input", "op": "Placeholder", "attr": {"shape": {"shape": {"dim": [{"size": "-1"}, {"size": "64"}, {"size": "64"}, {"size": "3"}]}}, "dtype": {"type": "DT_FLOAT"}}}, {"name": "StatefulPartitionedCall/sequential/resnet50/conv1_conv/Conv2D_weights", "op": "Const", "attr": {"value": {"tensor": {"dtype": "DT_FLOAT", "tensorShape": {"dim": [{"size": "7"}, {"size": "7"}, {"size": "3"}, {"size": "64"}]}}}, "dtype": {"type": "DT_FLOAT"}}}, {"name": "StatefulPartitionedCall/sequential/resnet50/conv5_block2_3_conv/Conv2D_bn_offset", "op": "Const", "attr": {"value": {"tensor": {"dtype": "DT_FLOAT", "tensorShape": {"dim": [{"size": "2048"}]}}}, "dtype": {"type": "DT_FLOAT"}}}, {"name": "StatefulPartitionedCall/sequential/resnet50/conv1_conv/Conv2D_bn_offset", "op": "Const", "attr": {"value": {"tensor": {"dtype": "DT_FLOAT", "tensorShape": {"dim": [{"size": "64"}]}}}, "dtype": {"type": "DT_FLOAT"}}}, {"name": "StatefulPartitionedCall/sequential/resnet50/conv2_block1_0_conv/Conv2D_weights", "op": "Const", "attr": {"value": {"tensor": {"dtype": "DT_FLOAT", "tensorShape": {"dim": [{"size": "1"}, {"size": "1"}, {"size": "64"}, {"size": "256"}]}}}, "dtype": {"type": "DT_FLOAT"}}}, {"name": "StatefulPartitionedCall/sequential/resnet50/conv4_block5_2_conv/Conv2D_weights", "op": "Const", "attr": {"value": {"tensor": {"dtype": "DT_FLOAT", "tensorShape": {"dim": [{"size": "3"}, {"size": "3"}, {"size": "256"}, {"size": "256"}]}}}, "dtype": {"type": "DT_FLOAT"}}}, {"name": "StatefulPartitionedCall/sequential/resnet50/conv2_block1_0_conv/Conv2D_bn_offset", "op": "Const", "attr": {"value": {"tensor": {"dtype": "DT_FLOAT", "tensorShape": {"dim": [{"size": "256"}]}}}, "dtype": {"type": "DT_FLOAT"}}}, {"name": "StatefulPartitionedCall/sequential/resnet50/conv2_block1_1_conv/Conv2D_weights", "op": "Const", "attr": {"value": {"tensor": {"dtype": "DT_FLOAT", "tensorShape": {"dim": [{"size": "1"}, {"size": "1"}, {"size": "64"}, {"size": "64"}]}}}, "dtype": {"type": "DT_FLOAT"}}}, {"name": "StatefulPartitionedCall/sequential/resnet50/conv2_block1_1_conv/Conv2D_bn_offset", "op": "Const", "attr": {"value": {"tensor": {"dtype": "DT_FLOAT", "tensorShape": {"dim": [{"size": "64"}]}}}, "dtype": {"type": "DT_FLOAT"}}}, {"name": "StatefulPartitionedCall/sequential/resnet50/conv4_block5_2_conv/Conv2D_bn_offset", "op": "Const", "attr": {"value": {"tensor": {"dtype": "DT_FLOAT", "tensorShape": {"dim": [{"size": "256"}]}}}, "dtype": {"type": "DT_FLOAT"}}}, {"name": "StatefulPartitionedCall/sequential/resnet50/conv2_block1_2_conv/Conv2D_weights", "op": "Const", "attr": {"value": {"tensor": {"dtype": "DT_FLOAT", "tensorShape": {"dim": [{"size": "3"}, {"size": "3"}, {"size": "64"}, {"size": "64"}]}}}, "dtype": {"type": "DT_FLOAT"}}}, {"name": "StatefulPartitionedCall/sequential/resnet50/conv2_block1_2_conv/Conv2D_bn_offset", "op": "Const", "attr": {"value": {"tensor": {"dtype": "DT_FLOAT", "tensorShape": {"dim": [{"size": "64"}]}}}, "dtype": {"type": "DT_FLOAT"}}}, {"name": "StatefulPartitionedCall/sequential/resnet50/conv2_block1_3_conv/Conv2D_weights", "op": "Const", "attr": {"value": {"tensor": {"dtype": "DT_FLOAT", "tensorShape": {"dim": [{"size": "1"}, {"size": "1"}, {"size": "64"}, {"size": "256"}]}}}, "dtype": {"type": "DT_FLOAT"}}}, {"name": "StatefulPartitionedCall/sequential/resnet50/conv4_block5_3_conv/Conv2D_weights", "op": "Const", "attr": {"value": {"tensor": {"dtype": "DT_FLOAT", "tensorShape": {"dim": [{"size": "1"}, {"size": "1"}, {"size": "256"}, {"size": "1024"}]}}}, "dtype": {"type": "DT_FLOAT"}}}, {"name": "StatefulPartitionedCall/sequential/resnet50/conv2_block1_3_conv/Conv2D_bn_offset", "op": "Const", "attr": {"value": {"tensor": {"dtype": "DT_FLOAT", "tensorShape": {"dim": [{"size": "256"}]}}}, "dtype": {"type": "DT_FLOAT"}}}, {"name": "StatefulPartitionedCall/sequential/resnet50/conv2_block2_1_conv/Conv2D_weights", "op": "Const", "attr": {"value": {"tensor": {"dtype": "DT_FLOAT", "tensorShape": {"dim": [{"size": "1"}, {"size": "1"}, {"size": "256"}, {"size": "64"}]}}}, "dtype": {"type": "DT_FLOAT"}}}, {"name": "StatefulPartitionedCall/sequential/resnet50/conv2_block2_1_conv/Conv2D_bn_offset", "op": "Const", "attr": {"value": {"tensor": {"dtype": "DT_FLOAT", "tensorShape": {"dim": [{"size": "64"}]}}}, "dtype": {"type": "DT_FLOAT"}}}, {"name": "StatefulPartitionedCall/sequential/resnet50/conv4_block5_3_conv/Conv2D_bn_offset", "op": "Const", "attr": {"value": {"tensor": {"dtype": "DT_FLOAT", "tensorShape": {"dim": [{"size": "1024"}]}}}, "dtype": {"type": "DT_FLOAT"}}}, {"name": "StatefulPartitionedCall/sequential/resnet50/conv2_block2_2_conv/Conv2D_weights", "op": "Const", "attr": {"value": {"tensor": {"dtype": "DT_FLOAT", "tensorShape": {"dim": [{"size": "3"}, {"size": "3"}, {"size": "64"}, {"size": "64"}]}}}, "dtype": {"type": "DT_FLOAT"}}}, {"name": "StatefulPartitionedCall/sequential/resnet50/conv2_block2_2_conv/Conv2D_bn_offset", "op": "Const", "attr": {"value": {"tensor": {"dtype": "DT_FLOAT", "tensorShape": {"dim": [{"size": "64"}]}}}, "dtype": {"type": "DT_FLOAT"}}}, {"name": "StatefulPartitionedCall/sequential/resnet50/conv2_block2_3_conv/Conv2D_weights", "op": "Const", "attr": {"value": {"tensor": {"dtype": "DT_FLOAT", "tensorShape": {"dim": [{"size": "1"}, {"size": "1"}, {"size": "64"}, {"size": "256"}]}}}, "dtype": {"type": "DT_FLOAT"}}}, {"name": "StatefulPartitionedCall/sequential/resnet50/conv2_block2_3_conv/Conv2D_bn_offset", "op": "Const", "attr": {"value": {"tensor": {"dtype": "DT_FLOAT", "tensorShape": {"dim": [{"size": "256"}]}}}, "dtype": {"type": "DT_FLOAT"}}}, {"name": "StatefulPartitionedCall/sequential/resnet50/conv2_block3_1_conv/Conv2D_weights", "op": "Const", "attr": {"value": {"tensor": {"dtype": "DT_FLOAT", "tensorShape": {"dim": [{"size": "1"}, {"size": "1"}, {"size": "256"}, {"size": "64"}]}}}, "dtype": {"type": "DT_FLOAT"}}}, {"name": "StatefulPartitionedCall/sequential/resnet50/conv4_block6_1_conv/Conv2D_weights", "op": "Const", "attr": {"value": {"tensor": {"dtype": "DT_FLOAT", "tensorShape": {"dim": [{"size": "1"}, {"size": "1"}, {"size": "1024"}, {"size": "256"}]}}}, "dtype": {"type": "DT_FLOAT"}}}, {"name": "StatefulPartitionedCall/sequential/resnet50/conv2_block3_1_conv/Conv2D_bn_offset", "op": "Const", "attr": {"value": {"tensor": {"dtype": "DT_FLOAT", "tensorShape": {"dim": [{"size": "64"}]}}}, "dtype": {"type": "DT_FLOAT"}}}, {"name": "StatefulPartitionedCall/sequential/resnet50/conv5_block3_1_conv/Conv2D_weights", "op": "Const", "attr": {"value": {"tensor": {"dtype": "DT_FLOAT", "tensorShape": {"dim": [{"size": "1"}, {"size": "1"}, {"size": "2048"}, {"size": "512"}]}}}, "dtype": {"type": "DT_FLOAT"}}}, {"name": "StatefulPartitionedCall/sequential/resnet50/conv2_block3_2_conv/Conv2D_weights", "op": "Const", "attr": {"value": {"tensor": {"dtype": "DT_FLOAT", "tensorShape": {"dim": [{"size": "3"}, {"size": "3"}, {"size": "64"}, {"size": "64"}]}}}, "dtype": {"type": "DT_FLOAT"}}}, {"name": "StatefulPartitionedCall/sequential/resnet50/conv4_block6_1_conv/Conv2D_bn_offset", "op": "Const", "attr": {"value": {"tensor": {"dtype": "DT_FLOAT", "tensorShape": {"dim": [{"size": "256"}]}}}, "dtype": {"type": "DT_FLOAT"}}}, {"name": "StatefulPartitionedCall/sequential/resnet50/conv2_block3_2_conv/Conv2D_bn_offset", "op": "Const", "attr": {"value": {"tensor": {"dtype": "DT_FLOAT", "tensorShape": {"dim": [{"size": "64"}]}}}, "dtype": {"type": "DT_FLOAT"}}}, {"name": "StatefulPartitionedCall/sequential/resnet50/conv2_block3_3_conv/Conv2D_weights", "op": "Const", "attr": {"value": {"tensor": {"dtype": "DT_FLOAT", "tensorShape": {"dim": [{"size": "1"}, {"size": "1"}, {"size": "64"}, {"size": "256"}]}}}, "dtype": {"type": "DT_FLOAT"}}}, {"name": "StatefulPartitionedCall/sequential/resnet50/conv2_block3_3_conv/Conv2D_bn_offset", "op": "Const", "attr": {"value": {"tensor": {"dtype": "DT_FLOAT", "tensorShape": {"dim": [{"size": "256"}]}}}, "dtype": {"type": "DT_FLOAT"}}}, {"name": "StatefulPartitionedCall/sequential/resnet50/conv3_block1_0_conv/Conv2D_weights", "op": "Const", "attr": {"value": {"tensor": {"dtype": "DT_FLOAT", "tensorShape": {"dim": [{"size": "1"}, {"size": "1"}, {"size": "256"}, {"size": "512"}]}}}, "dtype": {"type": "DT_FLOAT"}}}, {"name": "StatefulPartitionedCall/sequential/resnet50/conv4_block6_2_conv/Conv2D_weights", "op": "Const", "attr": {"value": {"tensor": {"dtype": "DT_FLOAT", "tensorShape": {"dim": [{"size": "3"}, {"size": "3"}, {"size": "256"}, {"size": "256"}]}}}, "dtype": {"type": "DT_FLOAT"}}}, {"name": "StatefulPartitionedCall/sequential/resnet50/conv3_block1_0_conv/Conv2D_bn_offset", "op": "Const", "attr": {"value": {"tensor": {"dtype": "DT_FLOAT", "tensorShape": {"dim": [{"size": "512"}]}}}, "dtype": {"type": "DT_FLOAT"}}}, {"name": "StatefulPartitionedCall/sequential/resnet50/conv3_block1_1_conv/Conv2D_weights", "op": "Const", "attr": {"value": {"tensor": {"dtype": "DT_FLOAT", "tensorShape": {"dim": [{"size": "1"}, {"size": "1"}, {"size": "256"}, {"size": "128"}]}}}, "dtype": {"type": "DT_FLOAT"}}}, {"name": "StatefulPartitionedCall/sequential/resnet50/conv5_block3_1_conv/Conv2D_bn_offset", "op": "Const", "attr": {"value": {"tensor": {"dtype": "DT_FLOAT", "tensorShape": {"dim": [{"size": "512"}]}}}, "dtype": {"type": "DT_FLOAT"}}}, {"name": "StatefulPartitionedCall/sequential/resnet50/conv3_block1_1_conv/Conv2D_bn_offset", "op": "Const", "attr": {"value": {"tensor": {"dtype": "DT_FLOAT", "tensorShape": {"dim": [{"size": "128"}]}}}, "dtype": {"type": "DT_FLOAT"}}}, {"name": "StatefulPartitionedCall/sequential/resnet50/conv4_block6_2_conv/Conv2D_bn_offset", "op": "Const", "attr": {"value": {"tensor": {"dtype": "DT_FLOAT", "tensorShape": {"dim": [{"size": "256"}]}}}, "dtype": {"type": "DT_FLOAT"}}}, {"name": "StatefulPartitionedCall/sequential/resnet50/conv3_block1_2_conv/Conv2D_weights", "op": "Const", "attr": {"value": {"tensor": {"dtype": "DT_FLOAT", "tensorShape": {"dim": [{"size": "3"}, {"size": "3"}, {"size": "128"}, {"size": "128"}]}}}, "dtype": {"type": "DT_FLOAT"}}}, {"name": "StatefulPartitionedCall/sequential/resnet50/conv3_block1_2_conv/Conv2D_bn_offset", "op": "Const", "attr": {"value": {"tensor": {"dtype": "DT_FLOAT", "tensorShape": {"dim": [{"size": "128"}]}}}, "dtype": {"type": "DT_FLOAT"}}}, {"name": "StatefulPartitionedCall/sequential/resnet50/conv3_block1_3_conv/Conv2D_weights", "op": "Const", "attr": {"value": {"tensor": {"dtype": "DT_FLOAT", "tensorShape": {"dim": [{"size": "1"}, {"size": "1"}, {"size": "128"}, {"size": "512"}]}}}, "dtype": {"type": "DT_FLOAT"}}}, {"name": "StatefulPartitionedCall/sequential/resnet50/conv4_block6_3_conv/Conv2D_weights", "op": "Const", "attr": {"value": {"tensor": {"dtype": "DT_FLOAT", "tensorShape": {"dim": [{"size": "1"}, {"size": "1"}, {"size": "256"}, {"size": "1024"}]}}}, "dtype": {"type": "DT_FLOAT"}}}, {"name": "StatefulPartitionedCall/sequential/resnet50/conv3_block1_3_conv/Conv2D_bn_offset", "op": "Const", "attr": {"value": {"tensor": {"dtype": "DT_FLOAT", "tensorShape": {"dim": [{"size": "512"}]}}}, "dtype": {"type": "DT_FLOAT"}}}, {"name": "StatefulPartitionedCall/sequential/resnet50/conv3_block2_1_conv/Conv2D_weights", "op": "Const", "attr": {"value": {"tensor": {"dtype": "DT_FLOAT", "tensorShape": {"dim": [{"size": "1"}, {"size": "1"}, {"size": "512"}, {"size": "128"}]}}}, "dtype": {"type": "DT_FLOAT"}}}, {"name": "StatefulPartitionedCall/sequential/resnet50/conv3_block2_1_conv/Conv2D_bn_offset", "op": "Const", "attr": {"value": {"tensor": {"dtype": "DT_FLOAT", "tensorShape": {"dim": [{"size": "128"}]}}}, "dtype": {"type": "DT_FLOAT"}}}, {"name": "StatefulPartitionedCall/sequential/resnet50/conv4_block6_3_conv/Conv2D_bn_offset", "op": "Const", "attr": {"value": {"tensor": {"dtype": "DT_FLOAT", "tensorShape": {"dim": [{"size": "1024"}]}}}, "dtype": {"type": "DT_FLOAT"}}}, {"name": "StatefulPartitionedCall/sequential/resnet50/conv3_block2_2_conv/Conv2D_weights", "op": "Const", "attr": {"value": {"tensor": {"dtype": "DT_FLOAT", "tensorShape": {"dim": [{"size": "3"}, {"size": "3"}, {"size": "128"}, {"size": "128"}]}}}, "dtype": {"type": "DT_FLOAT"}}}, {"name": "StatefulPartitionedCall/sequential/resnet50/conv3_block2_2_conv/Conv2D_bn_offset", "op": "Const", "attr": {"value": {"tensor": {"dtype": "DT_FLOAT", "tensorShape": {"dim": [{"size": "128"}]}}}, "dtype": {"type": "DT_FLOAT"}}}, {"name": "StatefulPartitionedCall/sequential/resnet50/conv3_block2_3_conv/Conv2D_weights", "op": "Const", "attr": {"value": {"tensor": {"dtype": "DT_FLOAT", "tensorShape": {"dim": [{"size": "1"}, {"size": "1"}, {"size": "128"}, {"size": "512"}]}}}, "dtype": {"type": "DT_FLOAT"}}}, {"name": "StatefulPartitionedCall/sequential/resnet50/conv3_block2_3_conv/Conv2D_bn_offset", "op": "Const", "attr": {"value": {"tensor": {"dtype": "DT_FLOAT", "tensorShape": {"dim": [{"size": "512"}]}}}, "dtype": {"type": "DT_FLOAT"}}}, {"name": "StatefulPartitionedCall/sequential/resnet50/conv3_block3_1_conv/Conv2D_weights", "op": "Const", "attr": {"value": {"tensor": {"dtype": "DT_FLOAT", "tensorShape": {"dim": [{"size": "1"}, {"size": "1"}, {"size": "512"}, {"size": "128"}]}}}, "dtype": {"type": "DT_FLOAT"}}}, {"name": "StatefulPartitionedCall/sequential/resnet50/conv5_block1_0_conv/Conv2D_weights", "op": "Const", "attr": {"value": {"tensor": {"dtype": "DT_FLOAT", "tensorShape": {"dim": [{"size": "1"}, {"size": "1"}, {"size": "1024"}, {"size": "2048"}]}}}, "dtype": {"type": "DT_FLOAT"}}}, {"name": "StatefulPartitionedCall/sequential/resnet50/conv3_block3_1_conv/Conv2D_bn_offset", "op": "Const", "attr": {"value": {"tensor": {"dtype": "DT_FLOAT", "tensorShape": {"dim": [{"size": "128"}]}}}, "dtype": {"type": "DT_FLOAT"}}}, {"name": "StatefulPartitionedCall/sequential/resnet50/conv5_block3_2_conv/Conv2D_weights", "op": "Const", "attr": {"value": {"tensor": {"dtype": "DT_FLOAT", "tensorShape": {"dim": [{"size": "3"}, {"size": "3"}, {"size": "512"}, {"size": "512"}]}}}, "dtype": {"type": "DT_FLOAT"}}}, {"name": "StatefulPartitionedCall/sequential/resnet50/conv3_block3_2_conv/Conv2D_weights", "op": "Const", "attr": {"value": {"tensor": {"dtype": "DT_FLOAT", "tensorShape": {"dim": [{"size": "3"}, {"size": "3"}, {"size": "128"}, {"size": "128"}]}}}, "dtype": {"type": "DT_FLOAT"}}}, {"name": "StatefulPartitionedCall/sequential/resnet50/conv5_block1_0_conv/Conv2D_bn_offset", "op": "Const", "attr": {"value": {"tensor": {"dtype": "DT_FLOAT", "tensorShape": {"dim": [{"size": "2048"}]}}}, "dtype": {"type": "DT_FLOAT"}}}, {"name": "StatefulPartitionedCall/sequential/resnet50/conv3_block3_2_conv/Conv2D_bn_offset", "op": "Const", "attr": {"value": {"tensor": {"dtype": "DT_FLOAT", "tensorShape": {"dim": [{"size": "128"}]}}}, "dtype": {"type": "DT_FLOAT"}}}, {"name": "StatefulPartitionedCall/sequential/resnet50/conv3_block3_3_conv/Conv2D_weights", "op": "Const", "attr": {"value": {"tensor": {"dtype": "DT_FLOAT", "tensorShape": {"dim": [{"size": "1"}, {"size": "1"}, {"size": "128"}, {"size": "512"}]}}}, "dtype": {"type": "DT_FLOAT"}}}, {"name": "StatefulPartitionedCall/sequential/resnet50/conv5_block1_1_conv/Conv2D_weights", "op": "Const", "attr": {"value": {"tensor": {"dtype": "DT_FLOAT", "tensorShape": {"dim": [{"size": "1"}, {"size": "1"}, {"size": "1024"}, {"size": "512"}]}}}, "dtype": {"type": "DT_FLOAT"}}}, {"name": "StatefulPartitionedCall/sequential/resnet50/conv3_block3_3_conv/Conv2D_bn_offset", "op": "Const", "attr": {"value": {"tensor": {"dtype": "DT_FLOAT", "tensorShape": {"dim": [{"size": "512"}]}}}, "dtype": {"type": "DT_FLOAT"}}}, {"name": "StatefulPartitionedCall/sequential/resnet50/conv3_block4_1_conv/Conv2D_weights", "op": "Const", "attr": {"value": {"tensor": {"dtype": "DT_FLOAT", "tensorShape": {"dim": [{"size": "1"}, {"size": "1"}, {"size": "512"}, {"size": "128"}]}}}, "dtype": {"type": "DT_FLOAT"}}}, {"name": "StatefulPartitionedCall/sequential/resnet50/conv3_block4_1_conv/Conv2D_bn_offset", "op": "Const", "attr": {"value": {"tensor": {"dtype": "DT_FLOAT", "tensorShape": {"dim": [{"size": "128"}]}}}, "dtype": {"type": "DT_FLOAT"}}}, {"name": "StatefulPartitionedCall/sequential/resnet50/conv5_block1_1_conv/Conv2D_bn_offset", "op": "Const", "attr": {"value": {"tensor": {"dtype": "DT_FLOAT", "tensorShape": {"dim": [{"size": "512"}]}}}, "dtype": {"type": "DT_FLOAT"}}}, {"name": "StatefulPartitionedCall/sequential/resnet50/conv3_block4_2_conv/Conv2D_weights", "op": "Const", "attr": {"value": {"tensor": {"dtype": "DT_FLOAT", "tensorShape": {"dim": [{"size": "3"}, {"size": "3"}, {"size": "128"}, {"size": "128"}]}}}, "dtype": {"type": "DT_FLOAT"}}}, {"name": "StatefulPartitionedCall/sequential/resnet50/conv5_block3_2_conv/Conv2D_bn_offset", "op": "Const", "attr": {"value": {"tensor": {"dtype": "DT_FLOAT", "tensorShape": {"dim": [{"size": "512"}]}}}, "dtype": {"type": "DT_FLOAT"}}}, {"name": "StatefulPartitionedCall/sequential/resnet50/conv3_block4_2_conv/Conv2D_bn_offset", "op": "Const", "attr": {"value": {"tensor": {"dtype": "DT_FLOAT", "tensorShape": {"dim": [{"size": "128"}]}}}, "dtype": {"type": "DT_FLOAT"}}}, {"name": "StatefulPartitionedCall/sequential/resnet50/conv3_block4_3_conv/Conv2D_weights", "op": "Const", "attr": {"value": {"tensor": {"dtype": "DT_FLOAT", "tensorShape": {"dim": [{"size": "1"}, {"size": "1"}, {"size": "128"}, {"size": "512"}]}}}, "dtype": {"type": "DT_FLOAT"}}}, {"name": "StatefulPartitionedCall/sequential/resnet50/conv5_block1_2_conv/Conv2D_weights", "op": "Const", "attr": {"value": {"tensor": {"dtype": "DT_FLOAT", "tensorShape": {"dim": [{"size": "3"}, {"size": "3"}, {"size": "512"}, {"size": "512"}]}}}, "dtype": {"type": "DT_FLOAT"}}}, {"name": "StatefulPartitionedCall/sequential/resnet50/conv3_block4_3_conv/Conv2D_bn_offset", "op": "Const", "attr": {"value": {"tensor": {"dtype": "DT_FLOAT", "tensorShape": {"dim": [{"size": "512"}]}}}, "dtype": {"type": "DT_FLOAT"}}}, {"name": "StatefulPartitionedCall/sequential/resnet50/conv4_block1_0_conv/Conv2D_weights", "op": "Const", "attr": {"value": {"tensor": {"dtype": "DT_FLOAT", "tensorShape": {"dim": [{"size": "1"}, {"size": "1"}, {"size": "512"}, {"size": "1024"}]}}}, "dtype": {"type": "DT_FLOAT"}}}, {"name": "StatefulPartitionedCall/sequential/resnet50/conv4_block1_0_conv/Conv2D_bn_offset", "op": "Const", "attr": {"value": {"tensor": {"dtype": "DT_FLOAT", "tensorShape": {"dim": [{"size": "1024"}]}}}, "dtype": {"type": "DT_FLOAT"}}}, {"name": "StatefulPartitionedCall/sequential/resnet50/conv4_block1_1_conv/Conv2D_weights", "op": "Const", "attr": {"value": {"tensor": {"dtype": "DT_FLOAT", "tensorShape": {"dim": [{"size": "1"}, {"size": "1"}, {"size": "512"}, {"size": "256"}]}}}, "dtype": {"type": "DT_FLOAT"}}}, {"name": "StatefulPartitionedCall/sequential/resnet50/conv5_block1_2_conv/Conv2D_bn_offset", "op": "Const", "attr": {"value": {"tensor": {"dtype": "DT_FLOAT", "tensorShape": {"dim": [{"size": "512"}]}}}, "dtype": {"type": "DT_FLOAT"}}}, {"name": "StatefulPartitionedCall/sequential/resnet50/conv4_block1_1_conv/Conv2D_bn_offset", "op": "Const", "attr": {"value": {"tensor": {"dtype": "DT_FLOAT", "tensorShape": {"dim": [{"size": "256"}]}}}, "dtype": {"type": "DT_FLOAT"}}}, {"name": "StatefulPartitionedCall/sequential/resnet50/conv4_block1_2_conv/Conv2D_weights", "op": "Const", "attr": {"value": {"tensor": {"dtype": "DT_FLOAT", "tensorShape": {"dim": [{"size": "3"}, {"size": "3"}, {"size": "256"}, {"size": "256"}]}}}, "dtype": {"type": "DT_FLOAT"}}}, {"name": "StatefulPartitionedCall/sequential/resnet50/conv4_block1_2_conv/Conv2D_bn_offset", "op": "Const", "attr": {"value": {"tensor": {"dtype": "DT_FLOAT", "tensorShape": {"dim": [{"size": "256"}]}}}, "dtype": {"type": "DT_FLOAT"}}}, {"name": "StatefulPartitionedCall/sequential/resnet50/conv5_block1_3_conv/Conv2D_weights", "op": "Const", "attr": {"value": {"tensor": {"dtype": "DT_FLOAT", "tensorShape": {"dim": [{"size": "1"}, {"size": "1"}, {"size": "512"}, {"size": "2048"}]}}}, "dtype": {"type": "DT_FLOAT"}}}, {"name": "StatefulPartitionedCall/sequential/resnet50/conv4_block1_3_conv/Conv2D_weights", "op": "Const", "attr": {"value": {"tensor": {"dtype": "DT_FLOAT", "tensorShape": {"dim": [{"size": "1"}, {"size": "1"}, {"size": "256"}, {"size": "1024"}]}}}, "dtype": {"type": "DT_FLOAT"}}}, {"name": "StatefulPartitionedCall/sequential/resnet50/conv5_block3_3_conv/Conv2D_weights", "op": "Const", "attr": {"value": {"tensor": {"dtype": "DT_FLOAT", "tensorShape": {"dim": [{"size": "1"}, {"size": "1"}, {"size": "512"}, {"size": "2048"}]}}}, "dtype": {"type": "DT_FLOAT"}}}, {"name": "StatefulPartitionedCall/sequential/resnet50/conv4_block1_3_conv/Conv2D_bn_offset", "op": "Const", "attr": {"value": {"tensor": {"dtype": "DT_FLOAT", "tensorShape": {"dim": [{"size": "1024"}]}}}, "dtype": {"type": "DT_FLOAT"}}}, {"name": "StatefulPartitionedCall/sequential/resnet50/conv4_block2_1_conv/Conv2D_weights", "op": "Const", "attr": {"value": {"tensor": {"dtype": "DT_FLOAT", "tensorShape": {"dim": [{"size": "1"}, {"size": "1"}, {"size": "1024"}, {"size": "256"}]}}}, "dtype": {"type": "DT_FLOAT"}}}, {"name": "StatefulPartitionedCall/sequential/resnet50/conv5_block1_3_conv/Conv2D_bn_offset", "op": "Const", "attr": {"value": {"tensor": {"dtype": "DT_FLOAT", "tensorShape": {"dim": [{"size": "2048"}]}}}, "dtype": {"type": "DT_FLOAT"}}}, {"name": "StatefulPartitionedCall/sequential/resnet50/conv4_block2_1_conv/Conv2D_bn_offset", "op": "Const", "attr": {"value": {"tensor": {"dtype": "DT_FLOAT", "tensorShape": {"dim": [{"size": "256"}]}}}, "dtype": {"type": "DT_FLOAT"}}}, {"name": "StatefulPartitionedCall/sequential/resnet50/conv4_block2_2_conv/Conv2D_weights", "op": "Const", "attr": {"value": {"tensor": {"dtype": "DT_FLOAT", "tensorShape": {"dim": [{"size": "3"}, {"size": "3"}, {"size": "256"}, {"size": "256"}]}}}, "dtype": {"type": "DT_FLOAT"}}}, {"name": "StatefulPartitionedCall/sequential/resnet50/conv4_block2_2_conv/Conv2D_bn_offset", "op": "Const", "attr": {"value": {"tensor": {"dtype": "DT_FLOAT", "tensorShape": {"dim": [{"size": "256"}]}}}, "dtype": {"type": "DT_FLOAT"}}}, {"name": "StatefulPartitionedCall/sequential/resnet50/conv4_block2_3_conv/Conv2D_weights", "op": "Const", "attr": {"value": {"tensor": {"dtype": "DT_FLOAT", "tensorShape": {"dim": [{"size": "1"}, {"size": "1"}, {"size": "256"}, {"size": "1024"}]}}}, "dtype": {"type": "DT_FLOAT"}}}, {"name": "StatefulPartitionedCall/sequential/resnet50/conv5_block2_1_conv/Conv2D_weights", "op": "Const", "attr": {"value": {"tensor": {"dtype": "DT_FLOAT", "tensorShape": {"dim": [{"size": "1"}, {"size": "1"}, {"size": "2048"}, {"size": "512"}]}}}, "dtype": {"type": "DT_FLOAT"}}}, {"name": "StatefulPartitionedCall/sequential/resnet50/conv4_block2_3_conv/Conv2D_bn_offset", "op": "Const", "attr": {"value": {"tensor": {"dtype": "DT_FLOAT", "tensorShape": {"dim": [{"size": "1024"}]}}}, "dtype": {"type": "DT_FLOAT"}}}, {"name": "StatefulPartitionedCall/sequential/resnet50/conv4_block3_1_conv/Conv2D_weights", "op": "Const", "attr": {"value": {"tensor": {"dtype": "DT_FLOAT", "tensorShape": {"dim": [{"size": "1"}, {"size": "1"}, {"size": "1024"}, {"size": "256"}]}}}, "dtype": {"type": "DT_FLOAT"}}}, {"name": "StatefulPartitionedCall/sequential/resnet50/conv4_block3_1_conv/Conv2D_bn_offset", "op": "Const", "attr": {"value": {"tensor": {"dtype": "DT_FLOAT", "tensorShape": {"dim": [{"size": "256"}]}}}, "dtype": {"type": "DT_FLOAT"}}}, {"name": "StatefulPartitionedCall/sequential/resnet50/conv5_block2_1_conv/Conv2D_bn_offset", "op": "Const", "attr": {"value": {"tensor": {"dtype": "DT_FLOAT", "tensorShape": {"dim": [{"size": "512"}]}}}, "dtype": {"type": "DT_FLOAT"}}}, {"name": "StatefulPartitionedCall/sequential/resnet50/conv4_block3_2_conv/Conv2D_weights", "op": "Const", "attr": {"value": {"tensor": {"dtype": "DT_FLOAT", "tensorShape": {"dim": [{"size": "3"}, {"size": "3"}, {"size": "256"}, {"size": "256"}]}}}, "dtype": {"type": "DT_FLOAT"}}}, {"name": "StatefulPartitionedCall/sequential/resnet50/conv5_block3_3_conv/Conv2D_bn_offset", "op": "Const", "attr": {"value": {"tensor": {"dtype": "DT_FLOAT", "tensorShape": {"dim": [{"size": "2048"}]}}}, "dtype": {"type": "DT_FLOAT"}}}, {"name": "StatefulPartitionedCall/sequential/resnet50/conv4_block3_2_conv/Conv2D_bn_offset", "op": "Const", "attr": {"value": {"tensor": {"dtype": "DT_FLOAT", "tensorShape": {"dim": [{"size": "256"}]}}}, "dtype": {"type": "DT_FLOAT"}}}, {"name": "StatefulPartitionedCall/sequential/resnet50/conv4_block3_3_conv/Conv2D_weights", "op": "Const", "attr": {"value": {"tensor": {"dtype": "DT_FLOAT", "tensorShape": {"dim": [{"size": "1"}, {"size": "1"}, {"size": "256"}, {"size": "1024"}]}}}, "dtype": {"type": "DT_FLOAT"}}}, {"name": "StatefulPartitionedCall/sequential/resnet50/conv5_block2_2_conv/Conv2D_weights", "op": "Const", "attr": {"value": {"tensor": {"dtype": "DT_FLOAT", "tensorShape": {"dim": [{"size": "3"}, {"size": "3"}, {"size": "512"}, {"size": "512"}]}}}, "dtype": {"type": "DT_FLOAT"}}}, {"name": "StatefulPartitionedCall/sequential/resnet50/conv4_block3_3_conv/Conv2D_bn_offset", "op": "Const", "attr": {"value": {"tensor": {"dtype": "DT_FLOAT", "tensorShape": {"dim": [{"size": "1024"}]}}}, "dtype": {"type": "DT_FLOAT"}}}, {"name": "StatefulPartitionedCall/sequential/resnet50/conv4_block4_1_conv/Conv2D_weights", "op": "Const", "attr": {"value": {"tensor": {"dtype": "DT_FLOAT", "tensorShape": {"dim": [{"size": "1"}, {"size": "1"}, {"size": "1024"}, {"size": "256"}]}}}, "dtype": {"type": "DT_FLOAT"}}}, {"name": "StatefulPartitionedCall/sequential/resnet50/conv4_block4_1_conv/Conv2D_bn_offset", "op": "Const", "attr": {"value": {"tensor": {"dtype": "DT_FLOAT", "tensorShape": {"dim": [{"size": "256"}]}}}, "dtype": {"type": "DT_FLOAT"}}}, {"name": "StatefulPartitionedCall/sequential/resnet50/conv5_block2_2_conv/Conv2D_bn_offset", "op": "Const", "attr": {"value": {"tensor": {"dtype": "DT_FLOAT", "tensorShape": {"dim": [{"size": "512"}]}}}, "dtype": {"type": "DT_FLOAT"}}}, {"name": "StatefulPartitionedCall/sequential/resnet50/conv4_block4_2_conv/Conv2D_weights", "op": "Const", "attr": {"value": {"tensor": {"dtype": "DT_FLOAT", "tensorShape": {"dim": [{"size": "3"}, {"size": "3"}, {"size": "256"}, {"size": "256"}]}}}, "dtype": {"type": "DT_FLOAT"}}}, {"name": "StatefulPartitionedCall/sequential/resnet50/conv4_block4_2_conv/Conv2D_bn_offset", "op": "Const", "attr": {"value": {"tensor": {"dtype": "DT_FLOAT", "tensorShape": {"dim": [{"size": "256"}]}}}, "dtype": {"type": "DT_FLOAT"}}}, {"name": "StatefulPartitionedCall/sequential/resnet50/conv4_block4_3_conv/Conv2D_weights", "op": "Const", "attr": {"value": {"tensor": {"dtype": "DT_FLOAT", "tensorShape": {"dim": [{"size": "1"}, {"size": "1"}, {"size": "256"}, {"size": "1024"}]}}}, "dtype": {"type": "DT_FLOAT"}}}, {"name": "StatefulPartitionedCall/sequential/resnet50/conv5_block2_3_conv/Conv2D_weights", "op": "Const", "attr": {"value": {"tensor": {"dtype": "DT_FLOAT", "tensorShape": {"dim": [{"size": "1"}, {"size": "1"}, {"size": "512"}, {"size": "2048"}]}}}, "dtype": {"type": "DT_FLOAT"}}}, {"name": "StatefulPartitionedCall/sequential/resnet50/conv4_block4_3_conv/Conv2D_bn_offset", "op": "Const", "attr": {"value": {"tensor": {"dtype": "DT_FLOAT", "tensorShape": {"dim": [{"size": "1024"}]}}}, "dtype": {"type": "DT_FLOAT"}}}, {"name": "StatefulPartitionedCall/sequential/resnet50/conv4_block5_1_conv/Conv2D_weights", "op": "Const", "attr": {"value": {"tensor": {"dtype": "DT_FLOAT", "tensorShape": {"dim": [{"size": "1"}, {"size": "1"}, {"size": "1024"}, {"size": "256"}]}}}, "dtype": {"type": "DT_FLOAT"}}}, {"name": "StatefulPartitionedCall/sequential/resnet50/conv4_block5_1_conv/Conv2D_bn_offset", "op": "Const", "attr": {"value": {"tensor": {"dtype": "DT_FLOAT", "tensorShape": {"dim": [{"size": "256"}]}}}, "dtype": {"type": "DT_FLOAT"}}}, {"name": "StatefulPartitionedCall/sequential/resnet50/conv1_pad/Pad/paddings", "op": "Const", "input": ["^resnet50_input"], "attr": {"value": {"tensor": {"dtype": "DT_INT32", "tensorShape": {"dim": [{"size": "4"}, {"size": "2"}]}}}, "dtype": {"type": "DT_INT32"}}}, {"name": "StatefulPartitionedCall/sequential/resnet50/pool1_pad/Pad/paddings", "op": "Const", "input": ["^resnet50_input"], "attr": {"value": {"tensor": {"dtype": "DT_INT32", "tensorShape": {"dim": [{"size": "4"}, {"size": "2"}]}}}, "dtype": {"type": "DT_INT32"}}}, {"name": "StatefulPartitionedCall/sequential/global_average_pooling2d/Mean/reduction_indices", "op": "Const", "input": ["^resnet50_input"], "attr": {"value": {"tensor": {"dtype": "DT_INT32", "tensorShape": {"dim": [{"size": "2"}]}}}, "dtype": {"type": "DT_INT32"}}}, {"name": "StatefulPartitionedCall/sequential/dense_1/MatMul/ReadVariableOp", "op": "Const", "input": ["^resnet50_input"], "attr": {"value": {"tensor": {"dtype": "DT_FLOAT", "tensorShape": {"dim": [{"size": "2048"}, {"size": "10"}]}}}, "dtype": {"type": "DT_FLOAT"}}}, {"name": "StatefulPartitionedCall/sequential/dense_1/BiasAdd/ReadVariableOp", "op": "Const", "input": ["^resnet50_input"], "attr": {"value": {"tensor": {"dtype": "DT_FLOAT", "tensorShape": {"dim": [{"size": "10"}]}}}, "dtype": {"type": "DT_FLOAT"}}}, {"name": "StatefulPartitionedCall/sequential/resnet50/conv1_pad/Pad", "op": "Pad", "input": ["resnet50_input", "StatefulPartitionedCall/sequential/resnet50/conv1_pad/Pad/paddings"], "attr": {"T": {"type": "DT_FLOAT"}, "Tpaddings": {"type": "DT_INT32"}}}, {"name": "StatefulPartitionedCall/sequential/resnet50/conv1_relu/Relu", "op": "_FusedConv2D", "input": ["StatefulPartitionedCall/sequential/resnet50/conv1_pad/Pad", "StatefulPartitionedCall/sequential/resnet50/conv1_conv/Conv2D_weights", "StatefulPartitionedCall/sequential/resnet50/conv1_conv/Conv2D_bn_offset"], "device": "/device:CPU:0", "attr": {"dilations": {"list": {"i": ["1", "1", "1", "1"]}}, "T": {"type": "DT_FLOAT"}, "data_format": {"s": "TkhXQw=="}, "strides": {"list": {"i": ["1", "2", "2", "1"]}}, "use_cudnn_on_gpu": {"b": true}, "explicit_paddings": {"list": {}}, "num_args": {"i": "1"}, "epsilon": {"f": 0.0}, "padding": {"s": "VkFMSUQ="}, "fused_ops": {"list": {"s": ["Qmlhc0FkZA==", "UmVsdQ=="]}}}}, {"name": "StatefulPartitionedCall/sequential/resnet50/pool1_pad/Pad", "op": "Pad", "input": ["StatefulPartitionedCall/sequential/resnet50/conv1_relu/Relu", "StatefulPartitionedCall/sequential/resnet50/pool1_pad/Pad/paddings"], "attr": {"T": {"type": "DT_FLOAT"}, "Tpaddings": {"type": "DT_INT32"}}}, {"name": "StatefulPartitionedCall/sequential/resnet50/pool1_pool/MaxPool", "op": "MaxPool", "input": ["StatefulPartitionedCall/sequential/resnet50/pool1_pad/Pad"], "attr": {"ksize": {"list": {"i": ["1", "3", "3", "1"]}}, "padding": {"s": "VkFMSUQ="}, "T": {"type": "DT_FLOAT"}, "data_format": {"s": "TkhXQw=="}, "strides": {"list": {"i": ["1", "2", "2", "1"]}}}}, {"name": "StatefulPartitionedCall/sequential/resnet50/conv2_block1_0_bn/FusedBatchNormV3", "op": "_FusedConv2D", "input": ["StatefulPartitionedCall/sequential/resnet50/pool1_pool/MaxPool", "StatefulPartitionedCall/sequential/resnet50/conv2_block1_0_conv/Conv2D_weights", "StatefulPartitionedCall/sequential/resnet50/conv2_block1_0_conv/Conv2D_bn_offset"], "device": "/device:CPU:0", "attr": {"dilations": {"list": {"i": ["1", "1", "1", "1"]}}, "T": {"type": "DT_FLOAT"}, "data_format": {"s": "TkhXQw=="}, "strides": {"list": {"i": ["1", "1", "1", "1"]}}, "use_cudnn_on_gpu": {"b": true}, "explicit_paddings": {"list": {}}, "num_args": {"i": "1"}, "epsilon": {"f": 0.0}, "padding": {"s": "VkFMSUQ="}, "fused_ops": {"list": {"s": ["Qmlhc0FkZA=="]}}}}, {"name": "StatefulPartitionedCall/sequential/resnet50/conv2_block1_1_relu/Relu", "op": "_FusedConv2D", "input": ["StatefulPartitionedCall/sequential/resnet50/pool1_pool/MaxPool", "StatefulPartitionedCall/sequential/resnet50/conv2_block1_1_conv/Conv2D_weights", "StatefulPartitionedCall/sequential/resnet50/conv2_block1_1_conv/Conv2D_bn_offset"], "device": "/device:CPU:0", "attr": {"dilations": {"list": {"i": ["1", "1", "1", "1"]}}, "T": {"type": "DT_FLOAT"}, "data_format": {"s": "TkhXQw=="}, "strides": {"list": {"i": ["1", "1", "1", "1"]}}, "use_cudnn_on_gpu": {"b": true}, "explicit_paddings": {"list": {}}, "num_args": {"i": "1"}, "epsilon": {"f": 0.0}, "padding": {"s": "VkFMSUQ="}, "fused_ops": {"list": {"s": ["Qmlhc0FkZA==", "UmVsdQ=="]}}}}, {"name": "StatefulPartitionedCall/sequential/resnet50/conv2_block1_2_relu/Relu", "op": "_FusedConv2D", "input": ["StatefulPartitionedCall/sequential/resnet50/conv2_block1_1_relu/Relu", "StatefulPartitionedCall/sequential/resnet50/conv2_block1_2_conv/Conv2D_weights", "StatefulPartitionedCall/sequential/resnet50/conv2_block1_2_conv/Conv2D_bn_offset"], "device": "/device:CPU:0", "attr": {"dilations": {"list": {"i": ["1", "1", "1", "1"]}}, "T": {"type": "DT_FLOAT"}, "data_format": {"s": "TkhXQw=="}, "strides": {"list": {"i": ["1", "1", "1", "1"]}}, "use_cudnn_on_gpu": {"b": true}, "explicit_paddings": {"list": {}}, "num_args": {"i": "1"}, "epsilon": {"f": 0.0}, "padding": {"s": "U0FNRQ=="}, "fused_ops": {"list": {"s": ["Qmlhc0FkZA==", "UmVsdQ=="]}}}}, {"name": "StatefulPartitionedCall/sequential/resnet50/conv2_block1_3_bn/FusedBatchNormV3", "op": "_FusedConv2D", "input": ["StatefulPartitionedCall/sequential/resnet50/conv2_block1_2_relu/Relu", "StatefulPartitionedCall/sequential/resnet50/conv2_block1_3_conv/Conv2D_weights", "StatefulPartitionedCall/sequential/resnet50/conv2_block1_3_conv/Conv2D_bn_offset"], "device": "/device:CPU:0", "attr": {"dilations": {"list": {"i": ["1", "1", "1", "1"]}}, "T": {"type": "DT_FLOAT"}, "data_format": {"s": "TkhXQw=="}, "strides": {"list": {"i": ["1", "1", "1", "1"]}}, "use_cudnn_on_gpu": {"b": true}, "explicit_paddings": {"list": {}}, "num_args": {"i": "1"}, "epsilon": {"f": 0.0}, "padding": {"s": "VkFMSUQ="}, "fused_ops": {"list": {"s": ["Qmlhc0FkZA=="]}}}}, {"name": "StatefulPartitionedCall/sequential/resnet50/conv2_block1_add/add", "op": "AddV2", "input": ["StatefulPartitionedCall/sequential/resnet50/conv2_block1_0_bn/FusedBatchNormV3", "StatefulPartitionedCall/sequential/resnet50/conv2_block1_3_bn/FusedBatchNormV3"], "attr": {"T": {"type": "DT_FLOAT"}}}, {"name": "StatefulPartitionedCall/sequential/resnet50/conv2_block1_out/Relu", "op": "Relu", "input": ["StatefulPartitionedCall/sequential/resnet50/conv2_block1_add/add"], "attr": {"T": {"type": "DT_FLOAT"}}}, {"name": "StatefulPartitionedCall/sequential/resnet50/conv2_block2_1_relu/Relu", "op": "_FusedConv2D", "input": ["StatefulPartitionedCall/sequential/resnet50/conv2_block1_out/Relu", "StatefulPartitionedCall/sequential/resnet50/conv2_block2_1_conv/Conv2D_weights", "StatefulPartitionedCall/sequential/resnet50/conv2_block2_1_conv/Conv2D_bn_offset"], "device": "/device:CPU:0", "attr": {"dilations": {"list": {"i": ["1", "1", "1", "1"]}}, "T": {"type": "DT_FLOAT"}, "data_format": {"s": "TkhXQw=="}, "strides": {"list": {"i": ["1", "1", "1", "1"]}}, "use_cudnn_on_gpu": {"b": true}, "explicit_paddings": {"list": {}}, "num_args": {"i": "1"}, "epsilon": {"f": 0.0}, "padding": {"s": "VkFMSUQ="}, "fused_ops": {"list": {"s": ["Qmlhc0FkZA==", "UmVsdQ=="]}}}}, {"name": "StatefulPartitionedCall/sequential/resnet50/conv2_block2_2_relu/Relu", "op": "_FusedConv2D", "input": ["StatefulPartitionedCall/sequential/resnet50/conv2_block2_1_relu/Relu", "StatefulPartitionedCall/sequential/resnet50/conv2_block2_2_conv/Conv2D_weights", "StatefulPartitionedCall/sequential/resnet50/conv2_block2_2_conv/Conv2D_bn_offset"], "device": "/device:CPU:0", "attr": {"dilations": {"list": {"i": ["1", "1", "1", "1"]}}, "T": {"type": "DT_FLOAT"}, "data_format": {"s": "TkhXQw=="}, "strides": {"list": {"i": ["1", "1", "1", "1"]}}, "use_cudnn_on_gpu": {"b": true}, "explicit_paddings": {"list": {}}, "num_args": {"i": "1"}, "epsilon": {"f": 0.0}, "padding": {"s": "U0FNRQ=="}, "fused_ops": {"list": {"s": ["Qmlhc0FkZA==", "UmVsdQ=="]}}}}, {"name": "StatefulPartitionedCall/sequential/resnet50/conv2_block2_3_bn/FusedBatchNormV3", "op": "_FusedConv2D", "input": ["StatefulPartitionedCall/sequential/resnet50/conv2_block2_2_relu/Relu", "StatefulPartitionedCall/sequential/resnet50/conv2_block2_3_conv/Conv2D_weights", "StatefulPartitionedCall/sequential/resnet50/conv2_block2_3_conv/Conv2D_bn_offset"], "device": "/device:CPU:0", "attr": {"dilations": {"list": {"i": ["1", "1", "1", "1"]}}, "T": {"type": "DT_FLOAT"}, "data_format": {"s": "TkhXQw=="}, "strides": {"list": {"i": ["1", "1", "1", "1"]}}, "use_cudnn_on_gpu": {"b": true}, "explicit_paddings": {"list": {}}, "num_args": {"i": "1"}, "epsilon": {"f": 0.0}, "padding": {"s": "VkFMSUQ="}, "fused_ops": {"list": {"s": ["Qmlhc0FkZA=="]}}}}, {"name": "StatefulPartitionedCall/sequential/resnet50/conv2_block2_add/add", "op": "AddV2", "input": ["StatefulPartitionedCall/sequential/resnet50/conv2_block1_out/Relu", "StatefulPartitionedCall/sequential/resnet50/conv2_block2_3_bn/FusedBatchNormV3"], "attr": {"T": {"type": "DT_FLOAT"}}}, {"name": "StatefulPartitionedCall/sequential/resnet50/conv2_block2_out/Relu", "op": "Relu", "input": ["StatefulPartitionedCall/sequential/resnet50/conv2_block2_add/add"], "attr": {"T": {"type": "DT_FLOAT"}}}, {"name": "StatefulPartitionedCall/sequential/resnet50/conv2_block3_1_relu/Relu", "op": "_FusedConv2D", "input": ["StatefulPartitionedCall/sequential/resnet50/conv2_block2_out/Relu", "StatefulPartitionedCall/sequential/resnet50/conv2_block3_1_conv/Conv2D_weights", "StatefulPartitionedCall/sequential/resnet50/conv2_block3_1_conv/Conv2D_bn_offset"], "device": "/device:CPU:0", "attr": {"dilations": {"list": {"i": ["1", "1", "1", "1"]}}, "T": {"type": "DT_FLOAT"}, "data_format": {"s": "TkhXQw=="}, "strides": {"list": {"i": ["1", "1", "1", "1"]}}, "use_cudnn_on_gpu": {"b": true}, "explicit_paddings": {"list": {}}, "num_args": {"i": "1"}, "epsilon": {"f": 0.0}, "padding": {"s": "VkFMSUQ="}, "fused_ops": {"list": {"s": ["Qmlhc0FkZA==", "UmVsdQ=="]}}}}, {"name": "StatefulPartitionedCall/sequential/resnet50/conv2_block3_2_relu/Relu", "op": "_FusedConv2D", "input": ["StatefulPartitionedCall/sequential/resnet50/conv2_block3_1_relu/Relu", "StatefulPartitionedCall/sequential/resnet50/conv2_block3_2_conv/Conv2D_weights", "StatefulPartitionedCall/sequential/resnet50/conv2_block3_2_conv/Conv2D_bn_offset"], "device": "/device:CPU:0", "attr": {"dilations": {"list": {"i": ["1", "1", "1", "1"]}}, "T": {"type": "DT_FLOAT"}, "data_format": {"s": "TkhXQw=="}, "strides": {"list": {"i": ["1", "1", "1", "1"]}}, "use_cudnn_on_gpu": {"b": true}, "explicit_paddings": {"list": {}}, "num_args": {"i": "1"}, "epsilon": {"f": 0.0}, "padding": {"s": "U0FNRQ=="}, "fused_ops": {"list": {"s": ["Qmlhc0FkZA==", "UmVsdQ=="]}}}}, {"name": "StatefulPartitionedCall/sequential/resnet50/conv2_block3_3_bn/FusedBatchNormV3", "op": "_FusedConv2D", "input": ["StatefulPartitionedCall/sequential/resnet50/conv2_block3_2_relu/Relu", "StatefulPartitionedCall/sequential/resnet50/conv2_block3_3_conv/Conv2D_weights", "StatefulPartitionedCall/sequential/resnet50/conv2_block3_3_conv/Conv2D_bn_offset"], "device": "/device:CPU:0", "attr": {"dilations": {"list": {"i": ["1", "1", "1", "1"]}}, "T": {"type": "DT_FLOAT"}, "data_format": {"s": "TkhXQw=="}, "strides": {"list": {"i": ["1", "1", "1", "1"]}}, "use_cudnn_on_gpu": {"b": true}, "explicit_paddings": {"list": {}}, "num_args": {"i": "1"}, "epsilon": {"f": 0.0}, "padding": {"s": "VkFMSUQ="}, "fused_ops": {"list": {"s": ["Qmlhc0FkZA=="]}}}}, {"name": "StatefulPartitionedCall/sequential/resnet50/conv2_block3_add/add", "op": "AddV2", "input": ["StatefulPartitionedCall/sequential/resnet50/conv2_block2_out/Relu", "StatefulPartitionedCall/sequential/resnet50/conv2_block3_3_bn/FusedBatchNormV3"], "attr": {"T": {"type": "DT_FLOAT"}}}, {"name": "StatefulPartitionedCall/sequential/resnet50/conv2_block3_out/Relu", "op": "Relu", "input": ["StatefulPartitionedCall/sequential/resnet50/conv2_block3_add/add"], "attr": {"T": {"type": "DT_FLOAT"}}}, {"name": "StatefulPartitionedCall/sequential/resnet50/conv3_block1_0_bn/FusedBatchNormV3", "op": "_FusedConv2D", "input": ["StatefulPartitionedCall/sequential/resnet50/conv2_block3_out/Relu", "StatefulPartitionedCall/sequential/resnet50/conv3_block1_0_conv/Conv2D_weights", "StatefulPartitionedCall/sequential/resnet50/conv3_block1_0_conv/Conv2D_bn_offset"], "device": "/device:CPU:0", "attr": {"dilations": {"list": {"i": ["1", "1", "1", "1"]}}, "T": {"type": "DT_FLOAT"}, "data_format": {"s": "TkhXQw=="}, "strides": {"list": {"i": ["1", "2", "2", "1"]}}, "use_cudnn_on_gpu": {"b": true}, "explicit_paddings": {"list": {}}, "num_args": {"i": "1"}, "epsilon": {"f": 0.0}, "padding": {"s": "VkFMSUQ="}, "fused_ops": {"list": {"s": ["Qmlhc0FkZA=="]}}}}, {"name": "StatefulPartitionedCall/sequential/resnet50/conv3_block1_1_relu/Relu", "op": "_FusedConv2D", "input": ["StatefulPartitionedCall/sequential/resnet50/conv2_block3_out/Relu", "StatefulPartitionedCall/sequential/resnet50/conv3_block1_1_conv/Conv2D_weights", "StatefulPartitionedCall/sequential/resnet50/conv3_block1_1_conv/Conv2D_bn_offset"], "device": "/device:CPU:0", "attr": {"dilations": {"list": {"i": ["1", "1", "1", "1"]}}, "T": {"type": "DT_FLOAT"}, "data_format": {"s": "TkhXQw=="}, "strides": {"list": {"i": ["1", "2", "2", "1"]}}, "use_cudnn_on_gpu": {"b": true}, "explicit_paddings": {"list": {}}, "num_args": {"i": "1"}, "epsilon": {"f": 0.0}, "padding": {"s": "VkFMSUQ="}, "fused_ops": {"list": {"s": ["Qmlhc0FkZA==", "UmVsdQ=="]}}}}, {"name": "StatefulPartitionedCall/sequential/resnet50/conv3_block1_2_relu/Relu", "op": "_FusedConv2D", "input": ["StatefulPartitionedCall/sequential/resnet50/conv3_block1_1_relu/Relu", "StatefulPartitionedCall/sequential/resnet50/conv3_block1_2_conv/Conv2D_weights", "StatefulPartitionedCall/sequential/resnet50/conv3_block1_2_conv/Conv2D_bn_offset"], "device": "/device:CPU:0", "attr": {"dilations": {"list": {"i": ["1", "1", "1", "1"]}}, "T": {"type": "DT_FLOAT"}, "data_format": {"s": "TkhXQw=="}, "strides": {"list": {"i": ["1", "1", "1", "1"]}}, "use_cudnn_on_gpu": {"b": true}, "explicit_paddings": {"list": {}}, "num_args": {"i": "1"}, "epsilon": {"f": 0.0}, "padding": {"s": "U0FNRQ=="}, "fused_ops": {"list": {"s": ["Qmlhc0FkZA==", "UmVsdQ=="]}}}}, {"name": "StatefulPartitionedCall/sequential/resnet50/conv3_block1_3_bn/FusedBatchNormV3", "op": "_FusedConv2D", "input": ["StatefulPartitionedCall/sequential/resnet50/conv3_block1_2_relu/Relu", "StatefulPartitionedCall/sequential/resnet50/conv3_block1_3_conv/Conv2D_weights", "StatefulPartitionedCall/sequential/resnet50/conv3_block1_3_conv/Conv2D_bn_offset"], "device": "/device:CPU:0", "attr": {"dilations": {"list": {"i": ["1", "1", "1", "1"]}}, "T": {"type": "DT_FLOAT"}, "data_format": {"s": "TkhXQw=="}, "strides": {"list": {"i": ["1", "1", "1", "1"]}}, "use_cudnn_on_gpu": {"b": true}, "explicit_paddings": {"list": {}}, "num_args": {"i": "1"}, "epsilon": {"f": 0.0}, "padding": {"s": "VkFMSUQ="}, "fused_ops": {"list": {"s": ["Qmlhc0FkZA=="]}}}}, {"name": "StatefulPartitionedCall/sequential/resnet50/conv3_block1_add/add", "op": "AddV2", "input": ["StatefulPartitionedCall/sequential/resnet50/conv3_block1_0_bn/FusedBatchNormV3", "StatefulPartitionedCall/sequential/resnet50/conv3_block1_3_bn/FusedBatchNormV3"], "attr": {"T": {"type": "DT_FLOAT"}}}, {"name": "StatefulPartitionedCall/sequential/resnet50/conv3_block1_out/Relu", "op": "Relu", "input": ["StatefulPartitionedCall/sequential/resnet50/conv3_block1_add/add"], "attr": {"T": {"type": "DT_FLOAT"}}}, {"name": "StatefulPartitionedCall/sequential/resnet50/conv3_block2_1_relu/Relu", "op": "_FusedConv2D", "input": ["StatefulPartitionedCall/sequential/resnet50/conv3_block1_out/Relu", "StatefulPartitionedCall/sequential/resnet50/conv3_block2_1_conv/Conv2D_weights", "StatefulPartitionedCall/sequential/resnet50/conv3_block2_1_conv/Conv2D_bn_offset"], "device": "/device:CPU:0", "attr": {"dilations": {"list": {"i": ["1", "1", "1", "1"]}}, "T": {"type": "DT_FLOAT"}, "data_format": {"s": "TkhXQw=="}, "strides": {"list": {"i": ["1", "1", "1", "1"]}}, "use_cudnn_on_gpu": {"b": true}, "explicit_paddings": {"list": {}}, "num_args": {"i": "1"}, "epsilon": {"f": 0.0}, "padding": {"s": "VkFMSUQ="}, "fused_ops": {"list": {"s": ["Qmlhc0FkZA==", "UmVsdQ=="]}}}}, {"name": "StatefulPartitionedCall/sequential/resnet50/conv3_block2_2_relu/Relu", "op": "_FusedConv2D", "input": ["StatefulPartitionedCall/sequential/resnet50/conv3_block2_1_relu/Relu", "StatefulPartitionedCall/sequential/resnet50/conv3_block2_2_conv/Conv2D_weights", "StatefulPartitionedCall/sequential/resnet50/conv3_block2_2_conv/Conv2D_bn_offset"], "device": "/device:CPU:0", "attr": {"dilations": {"list": {"i": ["1", "1", "1", "1"]}}, "T": {"type": "DT_FLOAT"}, "data_format": {"s": "TkhXQw=="}, "strides": {"list": {"i": ["1", "1", "1", "1"]}}, "use_cudnn_on_gpu": {"b": true}, "explicit_paddings": {"list": {}}, "num_args": {"i": "1"}, "epsilon": {"f": 0.0}, "padding": {"s": "U0FNRQ=="}, "fused_ops": {"list": {"s": ["Qmlhc0FkZA==", "UmVsdQ=="]}}}}, {"name": "StatefulPartitionedCall/sequential/resnet50/conv3_block2_3_bn/FusedBatchNormV3", "op": "_FusedConv2D", "input": ["StatefulPartitionedCall/sequential/resnet50/conv3_block2_2_relu/Relu", "StatefulPartitionedCall/sequential/resnet50/conv3_block2_3_conv/Conv2D_weights", "StatefulPartitionedCall/sequential/resnet50/conv3_block2_3_conv/Conv2D_bn_offset"], "device": "/device:CPU:0", "attr": {"dilations": {"list": {"i": ["1", "1", "1", "1"]}}, "T": {"type": "DT_FLOAT"}, "data_format": {"s": "TkhXQw=="}, "strides": {"list": {"i": ["1", "1", "1", "1"]}}, "use_cudnn_on_gpu": {"b": true}, "explicit_paddings": {"list": {}}, "num_args": {"i": "1"}, "epsilon": {"f": 0.0}, "padding": {"s": "VkFMSUQ="}, "fused_ops": {"list": {"s": ["Qmlhc0FkZA=="]}}}}, {"name": "StatefulPartitionedCall/sequential/resnet50/conv3_block2_add/add", "op": "AddV2", "input": ["StatefulPartitionedCall/sequential/resnet50/conv3_block1_out/Relu", "StatefulPartitionedCall/sequential/resnet50/conv3_block2_3_bn/FusedBatchNormV3"], "attr": {"T": {"type": "DT_FLOAT"}}}, {"name": "StatefulPartitionedCall/sequential/resnet50/conv3_block2_out/Relu", "op": "Relu", "input": ["StatefulPartitionedCall/sequential/resnet50/conv3_block2_add/add"], "attr": {"T": {"type": "DT_FLOAT"}}}, {"name": "StatefulPartitionedCall/sequential/resnet50/conv3_block3_1_relu/Relu", "op": "_FusedConv2D", "input": ["StatefulPartitionedCall/sequential/resnet50/conv3_block2_out/Relu", "StatefulPartitionedCall/sequential/resnet50/conv3_block3_1_conv/Conv2D_weights", "StatefulPartitionedCall/sequential/resnet50/conv3_block3_1_conv/Conv2D_bn_offset"], "device": "/device:CPU:0", "attr": {"dilations": {"list": {"i": ["1", "1", "1", "1"]}}, "T": {"type": "DT_FLOAT"}, "data_format": {"s": "TkhXQw=="}, "strides": {"list": {"i": ["1", "1", "1", "1"]}}, "use_cudnn_on_gpu": {"b": true}, "explicit_paddings": {"list": {}}, "num_args": {"i": "1"}, "epsilon": {"f": 0.0}, "padding": {"s": "VkFMSUQ="}, "fused_ops": {"list": {"s": ["Qmlhc0FkZA==", "UmVsdQ=="]}}}}, {"name": "StatefulPartitionedCall/sequential/resnet50/conv3_block3_2_relu/Relu", "op": "_FusedConv2D", "input": ["StatefulPartitionedCall/sequential/resnet50/conv3_block3_1_relu/Relu", "StatefulPartitionedCall/sequential/resnet50/conv3_block3_2_conv/Conv2D_weights", "StatefulPartitionedCall/sequential/resnet50/conv3_block3_2_conv/Conv2D_bn_offset"], "device": "/device:CPU:0", "attr": {"dilations": {"list": {"i": ["1", "1", "1", "1"]}}, "T": {"type": "DT_FLOAT"}, "data_format": {"s": "TkhXQw=="}, "strides": {"list": {"i": ["1", "1", "1", "1"]}}, "use_cudnn_on_gpu": {"b": true}, "explicit_paddings": {"list": {}}, "num_args": {"i": "1"}, "epsilon": {"f": 0.0}, "padding": {"s": "U0FNRQ=="}, "fused_ops": {"list": {"s": ["Qmlhc0FkZA==", "UmVsdQ=="]}}}}, {"name": "StatefulPartitionedCall/sequential/resnet50/conv3_block3_3_bn/FusedBatchNormV3", "op": "_FusedConv2D", "input": ["StatefulPartitionedCall/sequential/resnet50/conv3_block3_2_relu/Relu", "StatefulPartitionedCall/sequential/resnet50/conv3_block3_3_conv/Conv2D_weights", "StatefulPartitionedCall/sequential/resnet50/conv3_block3_3_conv/Conv2D_bn_offset"], "device": "/device:CPU:0", "attr": {"dilations": {"list": {"i": ["1", "1", "1", "1"]}}, "T": {"type": "DT_FLOAT"}, "data_format": {"s": "TkhXQw=="}, "strides": {"list": {"i": ["1", "1", "1", "1"]}}, "use_cudnn_on_gpu": {"b": true}, "explicit_paddings": {"list": {}}, "num_args": {"i": "1"}, "epsilon": {"f": 0.0}, "padding": {"s": "VkFMSUQ="}, "fused_ops": {"list": {"s": ["Qmlhc0FkZA=="]}}}}, {"name": "StatefulPartitionedCall/sequential/resnet50/conv3_block3_add/add", "op": "AddV2", "input": ["StatefulPartitionedCall/sequential/resnet50/conv3_block2_out/Relu", "StatefulPartitionedCall/sequential/resnet50/conv3_block3_3_bn/FusedBatchNormV3"], "attr": {"T": {"type": "DT_FLOAT"}}}, {"name": "StatefulPartitionedCall/sequential/resnet50/conv3_block3_out/Relu", "op": "Relu", "input": ["StatefulPartitionedCall/sequential/resnet50/conv3_block3_add/add"], "attr": {"T": {"type": "DT_FLOAT"}}}, {"name": "StatefulPartitionedCall/sequential/resnet50/conv3_block4_1_relu/Relu", "op": "_FusedConv2D", "input": ["StatefulPartitionedCall/sequential/resnet50/conv3_block3_out/Relu", "StatefulPartitionedCall/sequential/resnet50/conv3_block4_1_conv/Conv2D_weights", "StatefulPartitionedCall/sequential/resnet50/conv3_block4_1_conv/Conv2D_bn_offset"], "device": "/device:CPU:0", "attr": {"dilations": {"list": {"i": ["1", "1", "1", "1"]}}, "T": {"type": "DT_FLOAT"}, "data_format": {"s": "TkhXQw=="}, "strides": {"list": {"i": ["1", "1", "1", "1"]}}, "use_cudnn_on_gpu": {"b": true}, "explicit_paddings": {"list": {}}, "num_args": {"i": "1"}, "epsilon": {"f": 0.0}, "padding": {"s": "VkFMSUQ="}, "fused_ops": {"list": {"s": ["Qmlhc0FkZA==", "UmVsdQ=="]}}}}, {"name": "StatefulPartitionedCall/sequential/resnet50/conv3_block4_2_relu/Relu", "op": "_FusedConv2D", "input": ["StatefulPartitionedCall/sequential/resnet50/conv3_block4_1_relu/Relu", "StatefulPartitionedCall/sequential/resnet50/conv3_block4_2_conv/Conv2D_weights", "StatefulPartitionedCall/sequential/resnet50/conv3_block4_2_conv/Conv2D_bn_offset"], "device": "/device:CPU:0", "attr": {"dilations": {"list": {"i": ["1", "1", "1", "1"]}}, "T": {"type": "DT_FLOAT"}, "data_format": {"s": "TkhXQw=="}, "strides": {"list": {"i": ["1", "1", "1", "1"]}}, "use_cudnn_on_gpu": {"b": true}, "explicit_paddings": {"list": {}}, "num_args": {"i": "1"}, "epsilon": {"f": 0.0}, "padding": {"s": "U0FNRQ=="}, "fused_ops": {"list": {"s": ["Qmlhc0FkZA==", "UmVsdQ=="]}}}}, {"name": "StatefulPartitionedCall/sequential/resnet50/conv3_block4_3_bn/FusedBatchNormV3", "op": "_FusedConv2D", "input": ["StatefulPartitionedCall/sequential/resnet50/conv3_block4_2_relu/Relu", "StatefulPartitionedCall/sequential/resnet50/conv3_block4_3_conv/Conv2D_weights", "StatefulPartitionedCall/sequential/resnet50/conv3_block4_3_conv/Conv2D_bn_offset"], "device": "/device:CPU:0", "attr": {"dilations": {"list": {"i": ["1", "1", "1", "1"]}}, "T": {"type": "DT_FLOAT"}, "data_format": {"s": "TkhXQw=="}, "strides": {"list": {"i": ["1", "1", "1", "1"]}}, "use_cudnn_on_gpu": {"b": true}, "explicit_paddings": {"list": {}}, "num_args": {"i": "1"}, "epsilon": {"f": 0.0}, "padding": {"s": "VkFMSUQ="}, "fused_ops": {"list": {"s": ["Qmlhc0FkZA=="]}}}}, {"name": "StatefulPartitionedCall/sequential/resnet50/conv3_block4_add/add", "op": "AddV2", "input": ["StatefulPartitionedCall/sequential/resnet50/conv3_block3_out/Relu", "StatefulPartitionedCall/sequential/resnet50/conv3_block4_3_bn/FusedBatchNormV3"], "attr": {"T": {"type": "DT_FLOAT"}}}, {"name": "StatefulPartitionedCall/sequential/resnet50/conv3_block4_out/Relu", "op": "Relu", "input": ["StatefulPartitionedCall/sequential/resnet50/conv3_block4_add/add"], "attr": {"T": {"type": "DT_FLOAT"}}}, {"name": "StatefulPartitionedCall/sequential/resnet50/conv4_block1_0_bn/FusedBatchNormV3", "op": "_FusedConv2D", "input": ["StatefulPartitionedCall/sequential/resnet50/conv3_block4_out/Relu", "StatefulPartitionedCall/sequential/resnet50/conv4_block1_0_conv/Conv2D_weights", "StatefulPartitionedCall/sequential/resnet50/conv4_block1_0_conv/Conv2D_bn_offset"], "device": "/device:CPU:0", "attr": {"dilations": {"list": {"i": ["1", "1", "1", "1"]}}, "T": {"type": "DT_FLOAT"}, "data_format": {"s": "TkhXQw=="}, "strides": {"list": {"i": ["1", "2", "2", "1"]}}, "use_cudnn_on_gpu": {"b": true}, "explicit_paddings": {"list": {}}, "num_args": {"i": "1"}, "epsilon": {"f": 0.0}, "padding": {"s": "VkFMSUQ="}, "fused_ops": {"list": {"s": ["Qmlhc0FkZA=="]}}}}, {"name": "StatefulPartitionedCall/sequential/resnet50/conv4_block1_1_relu/Relu", "op": "_FusedConv2D", "input": ["StatefulPartitionedCall/sequential/resnet50/conv3_block4_out/Relu", "StatefulPartitionedCall/sequential/resnet50/conv4_block1_1_conv/Conv2D_weights", "StatefulPartitionedCall/sequential/resnet50/conv4_block1_1_conv/Conv2D_bn_offset"], "device": "/device:CPU:0", "attr": {"dilations": {"list": {"i": ["1", "1", "1", "1"]}}, "T": {"type": "DT_FLOAT"}, "data_format": {"s": "TkhXQw=="}, "strides": {"list": {"i": ["1", "2", "2", "1"]}}, "use_cudnn_on_gpu": {"b": true}, "explicit_paddings": {"list": {}}, "num_args": {"i": "1"}, "epsilon": {"f": 0.0}, "padding": {"s": "VkFMSUQ="}, "fused_ops": {"list": {"s": ["Qmlhc0FkZA==", "UmVsdQ=="]}}}}, {"name": "StatefulPartitionedCall/sequential/resnet50/conv4_block1_2_relu/Relu", "op": "_FusedConv2D", "input": ["StatefulPartitionedCall/sequential/resnet50/conv4_block1_1_relu/Relu", "StatefulPartitionedCall/sequential/resnet50/conv4_block1_2_conv/Conv2D_weights", "StatefulPartitionedCall/sequential/resnet50/conv4_block1_2_conv/Conv2D_bn_offset"], "device": "/device:CPU:0", "attr": {"dilations": {"list": {"i": ["1", "1", "1", "1"]}}, "T": {"type": "DT_FLOAT"}, "data_format": {"s": "TkhXQw=="}, "strides": {"list": {"i": ["1", "1", "1", "1"]}}, "use_cudnn_on_gpu": {"b": true}, "explicit_paddings": {"list": {}}, "num_args": {"i": "1"}, "epsilon": {"f": 0.0}, "padding": {"s": "U0FNRQ=="}, "fused_ops": {"list": {"s": ["Qmlhc0FkZA==", "UmVsdQ=="]}}}}, {"name": "StatefulPartitionedCall/sequential/resnet50/conv4_block1_3_bn/FusedBatchNormV3", "op": "_FusedConv2D", "input": ["StatefulPartitionedCall/sequential/resnet50/conv4_block1_2_relu/Relu", "StatefulPartitionedCall/sequential/resnet50/conv4_block1_3_conv/Conv2D_weights", "StatefulPartitionedCall/sequential/resnet50/conv4_block1_3_conv/Conv2D_bn_offset"], "device": "/device:CPU:0", "attr": {"dilations": {"list": {"i": ["1", "1", "1", "1"]}}, "T": {"type": "DT_FLOAT"}, "data_format": {"s": "TkhXQw=="}, "strides": {"list": {"i": ["1", "1", "1", "1"]}}, "use_cudnn_on_gpu": {"b": true}, "explicit_paddings": {"list": {}}, "num_args": {"i": "1"}, "epsilon": {"f": 0.0}, "padding": {"s": "VkFMSUQ="}, "fused_ops": {"list": {"s": ["Qmlhc0FkZA=="]}}}}, {"name": "StatefulPartitionedCall/sequential/resnet50/conv4_block1_add/add", "op": "AddV2", "input": ["StatefulPartitionedCall/sequential/resnet50/conv4_block1_0_bn/FusedBatchNormV3", "StatefulPartitionedCall/sequential/resnet50/conv4_block1_3_bn/FusedBatchNormV3"], "attr": {"T": {"type": "DT_FLOAT"}}}, {"name": "StatefulPartitionedCall/sequential/resnet50/conv4_block1_out/Relu", "op": "Relu", "input": ["StatefulPartitionedCall/sequential/resnet50/conv4_block1_add/add"], "attr": {"T": {"type": "DT_FLOAT"}}}, {"name": "StatefulPartitionedCall/sequential/resnet50/conv4_block2_1_relu/Relu", "op": "_FusedConv2D", "input": ["StatefulPartitionedCall/sequential/resnet50/conv4_block1_out/Relu", "StatefulPartitionedCall/sequential/resnet50/conv4_block2_1_conv/Conv2D_weights", "StatefulPartitionedCall/sequential/resnet50/conv4_block2_1_conv/Conv2D_bn_offset"], "device": "/device:CPU:0", "attr": {"dilations": {"list": {"i": ["1", "1", "1", "1"]}}, "T": {"type": "DT_FLOAT"}, "data_format": {"s": "TkhXQw=="}, "strides": {"list": {"i": ["1", "1", "1", "1"]}}, "use_cudnn_on_gpu": {"b": true}, "explicit_paddings": {"list": {}}, "num_args": {"i": "1"}, "epsilon": {"f": 0.0}, "padding": {"s": "VkFMSUQ="}, "fused_ops": {"list": {"s": ["Qmlhc0FkZA==", "UmVsdQ=="]}}}}, {"name": "StatefulPartitionedCall/sequential/resnet50/conv4_block2_2_relu/Relu", "op": "_FusedConv2D", "input": ["StatefulPartitionedCall/sequential/resnet50/conv4_block2_1_relu/Relu", "StatefulPartitionedCall/sequential/resnet50/conv4_block2_2_conv/Conv2D_weights", "StatefulPartitionedCall/sequential/resnet50/conv4_block2_2_conv/Conv2D_bn_offset"], "device": "/device:CPU:0", "attr": {"dilations": {"list": {"i": ["1", "1", "1", "1"]}}, "T": {"type": "DT_FLOAT"}, "data_format": {"s": "TkhXQw=="}, "strides": {"list": {"i": ["1", "1", "1", "1"]}}, "use_cudnn_on_gpu": {"b": true}, "explicit_paddings": {"list": {}}, "num_args": {"i": "1"}, "epsilon": {"f": 0.0}, "padding": {"s": "U0FNRQ=="}, "fused_ops": {"list": {"s": ["Qmlhc0FkZA==", "UmVsdQ=="]}}}}, {"name": "StatefulPartitionedCall/sequential/resnet50/conv4_block2_3_bn/FusedBatchNormV3", "op": "_FusedConv2D", "input": ["StatefulPartitionedCall/sequential/resnet50/conv4_block2_2_relu/Relu", "StatefulPartitionedCall/sequential/resnet50/conv4_block2_3_conv/Conv2D_weights", "StatefulPartitionedCall/sequential/resnet50/conv4_block2_3_conv/Conv2D_bn_offset"], "device": "/device:CPU:0", "attr": {"dilations": {"list": {"i": ["1", "1", "1", "1"]}}, "T": {"type": "DT_FLOAT"}, "data_format": {"s": "TkhXQw=="}, "strides": {"list": {"i": ["1", "1", "1", "1"]}}, "use_cudnn_on_gpu": {"b": true}, "explicit_paddings": {"list": {}}, "num_args": {"i": "1"}, "epsilon": {"f": 0.0}, "padding": {"s": "VkFMSUQ="}, "fused_ops": {"list": {"s": ["Qmlhc0FkZA=="]}}}}, {"name": "StatefulPartitionedCall/sequential/resnet50/conv4_block2_add/add", "op": "AddV2", "input": ["StatefulPartitionedCall/sequential/resnet50/conv4_block1_out/Relu", "StatefulPartitionedCall/sequential/resnet50/conv4_block2_3_bn/FusedBatchNormV3"], "attr": {"T": {"type": "DT_FLOAT"}}}, {"name": "StatefulPartitionedCall/sequential/resnet50/conv4_block2_out/Relu", "op": "Relu", "input": ["StatefulPartitionedCall/sequential/resnet50/conv4_block2_add/add"], "attr": {"T": {"type": "DT_FLOAT"}}}, {"name": "StatefulPartitionedCall/sequential/resnet50/conv4_block3_1_relu/Relu", "op": "_FusedConv2D", "input": ["StatefulPartitionedCall/sequential/resnet50/conv4_block2_out/Relu", "StatefulPartitionedCall/sequential/resnet50/conv4_block3_1_conv/Conv2D_weights", "StatefulPartitionedCall/sequential/resnet50/conv4_block3_1_conv/Conv2D_bn_offset"], "device": "/device:CPU:0", "attr": {"dilations": {"list": {"i": ["1", "1", "1", "1"]}}, "T": {"type": "DT_FLOAT"}, "data_format": {"s": "TkhXQw=="}, "strides": {"list": {"i": ["1", "1", "1", "1"]}}, "use_cudnn_on_gpu": {"b": true}, "explicit_paddings": {"list": {}}, "num_args": {"i": "1"}, "epsilon": {"f": 0.0}, "padding": {"s": "VkFMSUQ="}, "fused_ops": {"list": {"s": ["Qmlhc0FkZA==", "UmVsdQ=="]}}}}, {"name": "StatefulPartitionedCall/sequential/resnet50/conv4_block3_2_relu/Relu", "op": "_FusedConv2D", "input": ["StatefulPartitionedCall/sequential/resnet50/conv4_block3_1_relu/Relu", "StatefulPartitionedCall/sequential/resnet50/conv4_block3_2_conv/Conv2D_weights", "StatefulPartitionedCall/sequential/resnet50/conv4_block3_2_conv/Conv2D_bn_offset"], "device": "/device:CPU:0", "attr": {"dilations": {"list": {"i": ["1", "1", "1", "1"]}}, "T": {"type": "DT_FLOAT"}, "data_format": {"s": "TkhXQw=="}, "strides": {"list": {"i": ["1", "1", "1", "1"]}}, "use_cudnn_on_gpu": {"b": true}, "explicit_paddings": {"list": {}}, "num_args": {"i": "1"}, "epsilon": {"f": 0.0}, "padding": {"s": "U0FNRQ=="}, "fused_ops": {"list": {"s": ["Qmlhc0FkZA==", "UmVsdQ=="]}}}}, {"name": "StatefulPartitionedCall/sequential/resnet50/conv4_block3_3_bn/FusedBatchNormV3", "op": "_FusedConv2D", "input": ["StatefulPartitionedCall/sequential/resnet50/conv4_block3_2_relu/Relu", "StatefulPartitionedCall/sequential/resnet50/conv4_block3_3_conv/Conv2D_weights", "StatefulPartitionedCall/sequential/resnet50/conv4_block3_3_conv/Conv2D_bn_offset"], "device": "/device:CPU:0", "attr": {"dilations": {"list": {"i": ["1", "1", "1", "1"]}}, "T": {"type": "DT_FLOAT"}, "data_format": {"s": "TkhXQw=="}, "strides": {"list": {"i": ["1", "1", "1", "1"]}}, "use_cudnn_on_gpu": {"b": true}, "explicit_paddings": {"list": {}}, "num_args": {"i": "1"}, "epsilon": {"f": 0.0}, "padding": {"s": "VkFMSUQ="}, "fused_ops": {"list": {"s": ["Qmlhc0FkZA=="]}}}}, {"name": "StatefulPartitionedCall/sequential/resnet50/conv4_block3_add/add", "op": "AddV2", "input": ["StatefulPartitionedCall/sequential/resnet50/conv4_block2_out/Relu", "StatefulPartitionedCall/sequential/resnet50/conv4_block3_3_bn/FusedBatchNormV3"], "attr": {"T": {"type": "DT_FLOAT"}}}, {"name": "StatefulPartitionedCall/sequential/resnet50/conv4_block3_out/Relu", "op": "Relu", "input": ["StatefulPartitionedCall/sequential/resnet50/conv4_block3_add/add"], "attr": {"T": {"type": "DT_FLOAT"}}}, {"name": "StatefulPartitionedCall/sequential/resnet50/conv4_block4_1_relu/Relu", "op": "_FusedConv2D", "input": ["StatefulPartitionedCall/sequential/resnet50/conv4_block3_out/Relu", "StatefulPartitionedCall/sequential/resnet50/conv4_block4_1_conv/Conv2D_weights", "StatefulPartitionedCall/sequential/resnet50/conv4_block4_1_conv/Conv2D_bn_offset"], "device": "/device:CPU:0", "attr": {"dilations": {"list": {"i": ["1", "1", "1", "1"]}}, "T": {"type": "DT_FLOAT"}, "data_format": {"s": "TkhXQw=="}, "strides": {"list": {"i": ["1", "1", "1", "1"]}}, "use_cudnn_on_gpu": {"b": true}, "explicit_paddings": {"list": {}}, "num_args": {"i": "1"}, "epsilon": {"f": 0.0}, "padding": {"s": "VkFMSUQ="}, "fused_ops": {"list": {"s": ["Qmlhc0FkZA==", "UmVsdQ=="]}}}}, {"name": "StatefulPartitionedCall/sequential/resnet50/conv4_block4_2_relu/Relu", "op": "_FusedConv2D", "input": ["StatefulPartitionedCall/sequential/resnet50/conv4_block4_1_relu/Relu", "StatefulPartitionedCall/sequential/resnet50/conv4_block4_2_conv/Conv2D_weights", "StatefulPartitionedCall/sequential/resnet50/conv4_block4_2_conv/Conv2D_bn_offset"], "device": "/device:CPU:0", "attr": {"dilations": {"list": {"i": ["1", "1", "1", "1"]}}, "T": {"type": "DT_FLOAT"}, "data_format": {"s": "TkhXQw=="}, "strides": {"list": {"i": ["1", "1", "1", "1"]}}, "use_cudnn_on_gpu": {"b": true}, "explicit_paddings": {"list": {}}, "num_args": {"i": "1"}, "epsilon": {"f": 0.0}, "padding": {"s": "U0FNRQ=="}, "fused_ops": {"list": {"s": ["Qmlhc0FkZA==", "UmVsdQ=="]}}}}, {"name": "StatefulPartitionedCall/sequential/resnet50/conv4_block4_3_bn/FusedBatchNormV3", "op": "_FusedConv2D", "input": ["StatefulPartitionedCall/sequential/resnet50/conv4_block4_2_relu/Relu", "StatefulPartitionedCall/sequential/resnet50/conv4_block4_3_conv/Conv2D_weights", "StatefulPartitionedCall/sequential/resnet50/conv4_block4_3_conv/Conv2D_bn_offset"], "device": "/device:CPU:0", "attr": {"dilations": {"list": {"i": ["1", "1", "1", "1"]}}, "T": {"type": "DT_FLOAT"}, "data_format": {"s": "TkhXQw=="}, "strides": {"list": {"i": ["1", "1", "1", "1"]}}, "use_cudnn_on_gpu": {"b": true}, "explicit_paddings": {"list": {}}, "num_args": {"i": "1"}, "epsilon": {"f": 0.0}, "padding": {"s": "VkFMSUQ="}, "fused_ops": {"list": {"s": ["Qmlhc0FkZA=="]}}}}, {"name": "StatefulPartitionedCall/sequential/resnet50/conv4_block4_add/add", "op": "AddV2", "input": ["StatefulPartitionedCall/sequential/resnet50/conv4_block3_out/Relu", "StatefulPartitionedCall/sequential/resnet50/conv4_block4_3_bn/FusedBatchNormV3"], "attr": {"T": {"type": "DT_FLOAT"}}}, {"name": "StatefulPartitionedCall/sequential/resnet50/conv4_block4_out/Relu", "op": "Relu", "input": ["StatefulPartitionedCall/sequential/resnet50/conv4_block4_add/add"], "attr": {"T": {"type": "DT_FLOAT"}}}, {"name": "StatefulPartitionedCall/sequential/resnet50/conv4_block5_1_relu/Relu", "op": "_FusedConv2D", "input": ["StatefulPartitionedCall/sequential/resnet50/conv4_block4_out/Relu", "StatefulPartitionedCall/sequential/resnet50/conv4_block5_1_conv/Conv2D_weights", "StatefulPartitionedCall/sequential/resnet50/conv4_block5_1_conv/Conv2D_bn_offset"], "device": "/device:CPU:0", "attr": {"dilations": {"list": {"i": ["1", "1", "1", "1"]}}, "T": {"type": "DT_FLOAT"}, "data_format": {"s": "TkhXQw=="}, "strides": {"list": {"i": ["1", "1", "1", "1"]}}, "use_cudnn_on_gpu": {"b": true}, "explicit_paddings": {"list": {}}, "num_args": {"i": "1"}, "epsilon": {"f": 0.0}, "padding": {"s": "VkFMSUQ="}, "fused_ops": {"list": {"s": ["Qmlhc0FkZA==", "UmVsdQ=="]}}}}, {"name": "StatefulPartitionedCall/sequential/resnet50/conv4_block5_2_relu/Relu", "op": "_FusedConv2D", "input": ["StatefulPartitionedCall/sequential/resnet50/conv4_block5_1_relu/Relu", "StatefulPartitionedCall/sequential/resnet50/conv4_block5_2_conv/Conv2D_weights", "StatefulPartitionedCall/sequential/resnet50/conv4_block5_2_conv/Conv2D_bn_offset"], "device": "/device:CPU:0", "attr": {"dilations": {"list": {"i": ["1", "1", "1", "1"]}}, "T": {"type": "DT_FLOAT"}, "data_format": {"s": "TkhXQw=="}, "strides": {"list": {"i": ["1", "1", "1", "1"]}}, "use_cudnn_on_gpu": {"b": true}, "explicit_paddings": {"list": {}}, "num_args": {"i": "1"}, "epsilon": {"f": 0.0}, "padding": {"s": "U0FNRQ=="}, "fused_ops": {"list": {"s": ["Qmlhc0FkZA==", "UmVsdQ=="]}}}}, {"name": "StatefulPartitionedCall/sequential/resnet50/conv4_block5_3_bn/FusedBatchNormV3", "op": "_FusedConv2D", "input": ["StatefulPartitionedCall/sequential/resnet50/conv4_block5_2_relu/Relu", "StatefulPartitionedCall/sequential/resnet50/conv4_block5_3_conv/Conv2D_weights", "StatefulPartitionedCall/sequential/resnet50/conv4_block5_3_conv/Conv2D_bn_offset"], "device": "/device:CPU:0", "attr": {"dilations": {"list": {"i": ["1", "1", "1", "1"]}}, "T": {"type": "DT_FLOAT"}, "data_format": {"s": "TkhXQw=="}, "strides": {"list": {"i": ["1", "1", "1", "1"]}}, "use_cudnn_on_gpu": {"b": true}, "explicit_paddings": {"list": {}}, "num_args": {"i": "1"}, "epsilon": {"f": 0.0}, "padding": {"s": "VkFMSUQ="}, "fused_ops": {"list": {"s": ["Qmlhc0FkZA=="]}}}}, {"name": "StatefulPartitionedCall/sequential/resnet50/conv4_block5_add/add", "op": "AddV2", "input": ["StatefulPartitionedCall/sequential/resnet50/conv4_block4_out/Relu", "StatefulPartitionedCall/sequential/resnet50/conv4_block5_3_bn/FusedBatchNormV3"], "attr": {"T": {"type": "DT_FLOAT"}}}, {"name": "StatefulPartitionedCall/sequential/resnet50/conv4_block5_out/Relu", "op": "Relu", "input": ["StatefulPartitionedCall/sequential/resnet50/conv4_block5_add/add"], "attr": {"T": {"type": "DT_FLOAT"}}}, {"name": "StatefulPartitionedCall/sequential/resnet50/conv4_block6_1_relu/Relu", "op": "_FusedConv2D", "input": ["StatefulPartitionedCall/sequential/resnet50/conv4_block5_out/Relu", "StatefulPartitionedCall/sequential/resnet50/conv4_block6_1_conv/Conv2D_weights", "StatefulPartitionedCall/sequential/resnet50/conv4_block6_1_conv/Conv2D_bn_offset"], "device": "/device:CPU:0", "attr": {"dilations": {"list": {"i": ["1", "1", "1", "1"]}}, "T": {"type": "DT_FLOAT"}, "data_format": {"s": "TkhXQw=="}, "strides": {"list": {"i": ["1", "1", "1", "1"]}}, "use_cudnn_on_gpu": {"b": true}, "explicit_paddings": {"list": {}}, "num_args": {"i": "1"}, "epsilon": {"f": 0.0}, "padding": {"s": "VkFMSUQ="}, "fused_ops": {"list": {"s": ["Qmlhc0FkZA==", "UmVsdQ=="]}}}}, {"name": "StatefulPartitionedCall/sequential/resnet50/conv4_block6_2_relu/Relu", "op": "_FusedConv2D", "input": ["StatefulPartitionedCall/sequential/resnet50/conv4_block6_1_relu/Relu", "StatefulPartitionedCall/sequential/resnet50/conv4_block6_2_conv/Conv2D_weights", "StatefulPartitionedCall/sequential/resnet50/conv4_block6_2_conv/Conv2D_bn_offset"], "device": "/device:CPU:0", "attr": {"dilations": {"list": {"i": ["1", "1", "1", "1"]}}, "T": {"type": "DT_FLOAT"}, "data_format": {"s": "TkhXQw=="}, "strides": {"list": {"i": ["1", "1", "1", "1"]}}, "use_cudnn_on_gpu": {"b": true}, "explicit_paddings": {"list": {}}, "num_args": {"i": "1"}, "epsilon": {"f": 0.0}, "padding": {"s": "U0FNRQ=="}, "fused_ops": {"list": {"s": ["Qmlhc0FkZA==", "UmVsdQ=="]}}}}, {"name": "StatefulPartitionedCall/sequential/resnet50/conv4_block6_3_bn/FusedBatchNormV3", "op": "_FusedConv2D", "input": ["StatefulPartitionedCall/sequential/resnet50/conv4_block6_2_relu/Relu", "StatefulPartitionedCall/sequential/resnet50/conv4_block6_3_conv/Conv2D_weights", "StatefulPartitionedCall/sequential/resnet50/conv4_block6_3_conv/Conv2D_bn_offset"], "device": "/device:CPU:0", "attr": {"dilations": {"list": {"i": ["1", "1", "1", "1"]}}, "T": {"type": "DT_FLOAT"}, "data_format": {"s": "TkhXQw=="}, "strides": {"list": {"i": ["1", "1", "1", "1"]}}, "use_cudnn_on_gpu": {"b": true}, "explicit_paddings": {"list": {}}, "num_args": {"i": "1"}, "epsilon": {"f": 0.0}, "padding": {"s": "VkFMSUQ="}, "fused_ops": {"list": {"s": ["Qmlhc0FkZA=="]}}}}, {"name": "StatefulPartitionedCall/sequential/resnet50/conv4_block6_add/add", "op": "AddV2", "input": ["StatefulPartitionedCall/sequential/resnet50/conv4_block5_out/Relu", "StatefulPartitionedCall/sequential/resnet50/conv4_block6_3_bn/FusedBatchNormV3"], "attr": {"T": {"type": "DT_FLOAT"}}}, {"name": "StatefulPartitionedCall/sequential/resnet50/conv4_block6_out/Relu", "op": "Relu", "input": ["StatefulPartitionedCall/sequential/resnet50/conv4_block6_add/add"], "attr": {"T": {"type": "DT_FLOAT"}}}, {"name": "StatefulPartitionedCall/sequential/resnet50/conv5_block1_0_bn/FusedBatchNormV3", "op": "_FusedConv2D", "input": ["StatefulPartitionedCall/sequential/resnet50/conv4_block6_out/Relu", "StatefulPartitionedCall/sequential/resnet50/conv5_block1_0_conv/Conv2D_weights", "StatefulPartitionedCall/sequential/resnet50/conv5_block1_0_conv/Conv2D_bn_offset"], "device": "/device:CPU:0", "attr": {"dilations": {"list": {"i": ["1", "1", "1", "1"]}}, "T": {"type": "DT_FLOAT"}, "data_format": {"s": "TkhXQw=="}, "strides": {"list": {"i": ["1", "2", "2", "1"]}}, "use_cudnn_on_gpu": {"b": true}, "explicit_paddings": {"list": {}}, "num_args": {"i": "1"}, "epsilon": {"f": 0.0}, "padding": {"s": "VkFMSUQ="}, "fused_ops": {"list": {"s": ["Qmlhc0FkZA=="]}}}}, {"name": "StatefulPartitionedCall/sequential/resnet50/conv5_block1_1_relu/Relu", "op": "_FusedConv2D", "input": ["StatefulPartitionedCall/sequential/resnet50/conv4_block6_out/Relu", "StatefulPartitionedCall/sequential/resnet50/conv5_block1_1_conv/Conv2D_weights", "StatefulPartitionedCall/sequential/resnet50/conv5_block1_1_conv/Conv2D_bn_offset"], "device": "/device:CPU:0", "attr": {"dilations": {"list": {"i": ["1", "1", "1", "1"]}}, "T": {"type": "DT_FLOAT"}, "data_format": {"s": "TkhXQw=="}, "strides": {"list": {"i": ["1", "2", "2", "1"]}}, "use_cudnn_on_gpu": {"b": true}, "explicit_paddings": {"list": {}}, "num_args": {"i": "1"}, "epsilon": {"f": 0.0}, "padding": {"s": "VkFMSUQ="}, "fused_ops": {"list": {"s": ["Qmlhc0FkZA==", "UmVsdQ=="]}}}}, {"name": "StatefulPartitionedCall/sequential/resnet50/conv5_block1_2_relu/Relu", "op": "_FusedConv2D", "input": ["StatefulPartitionedCall/sequential/resnet50/conv5_block1_1_relu/Relu", "StatefulPartitionedCall/sequential/resnet50/conv5_block1_2_conv/Conv2D_weights", "StatefulPartitionedCall/sequential/resnet50/conv5_block1_2_conv/Conv2D_bn_offset"], "device": "/device:CPU:0", "attr": {"dilations": {"list": {"i": ["1", "1", "1", "1"]}}, "T": {"type": "DT_FLOAT"}, "data_format": {"s": "TkhXQw=="}, "strides": {"list": {"i": ["1", "1", "1", "1"]}}, "use_cudnn_on_gpu": {"b": true}, "explicit_paddings": {"list": {}}, "num_args": {"i": "1"}, "epsilon": {"f": 0.0}, "padding": {"s": "U0FNRQ=="}, "fused_ops": {"list": {"s": ["Qmlhc0FkZA==", "UmVsdQ=="]}}}}, {"name": "StatefulPartitionedCall/sequential/resnet50/conv5_block1_3_bn/FusedBatchNormV3", "op": "_FusedConv2D", "input": ["StatefulPartitionedCall/sequential/resnet50/conv5_block1_2_relu/Relu", "StatefulPartitionedCall/sequential/resnet50/conv5_block1_3_conv/Conv2D_weights", "StatefulPartitionedCall/sequential/resnet50/conv5_block1_3_conv/Conv2D_bn_offset"], "device": "/device:CPU:0", "attr": {"dilations": {"list": {"i": ["1", "1", "1", "1"]}}, "T": {"type": "DT_FLOAT"}, "data_format": {"s": "TkhXQw=="}, "strides": {"list": {"i": ["1", "1", "1", "1"]}}, "use_cudnn_on_gpu": {"b": true}, "explicit_paddings": {"list": {}}, "num_args": {"i": "1"}, "epsilon": {"f": 0.0}, "padding": {"s": "VkFMSUQ="}, "fused_ops": {"list": {"s": ["Qmlhc0FkZA=="]}}}}, {"name": "StatefulPartitionedCall/sequential/resnet50/conv5_block1_add/add", "op": "AddV2", "input": ["StatefulPartitionedCall/sequential/resnet50/conv5_block1_0_bn/FusedBatchNormV3", "StatefulPartitionedCall/sequential/resnet50/conv5_block1_3_bn/FusedBatchNormV3"], "attr": {"T": {"type": "DT_FLOAT"}}}, {"name": "StatefulPartitionedCall/sequential/resnet50/conv5_block1_out/Relu", "op": "Relu", "input": ["StatefulPartitionedCall/sequential/resnet50/conv5_block1_add/add"], "attr": {"T": {"type": "DT_FLOAT"}}}, {"name": "StatefulPartitionedCall/sequential/resnet50/conv5_block2_1_relu/Relu", "op": "_FusedConv2D", "input": ["StatefulPartitionedCall/sequential/resnet50/conv5_block1_out/Relu", "StatefulPartitionedCall/sequential/resnet50/conv5_block2_1_conv/Conv2D_weights", "StatefulPartitionedCall/sequential/resnet50/conv5_block2_1_conv/Conv2D_bn_offset"], "device": "/device:CPU:0", "attr": {"dilations": {"list": {"i": ["1", "1", "1", "1"]}}, "T": {"type": "DT_FLOAT"}, "data_format": {"s": "TkhXQw=="}, "strides": {"list": {"i": ["1", "1", "1", "1"]}}, "use_cudnn_on_gpu": {"b": true}, "explicit_paddings": {"list": {}}, "num_args": {"i": "1"}, "epsilon": {"f": 0.0}, "padding": {"s": "VkFMSUQ="}, "fused_ops": {"list": {"s": ["Qmlhc0FkZA==", "UmVsdQ=="]}}}}, {"name": "StatefulPartitionedCall/sequential/resnet50/conv5_block2_2_relu/Relu", "op": "_FusedConv2D", "input": ["StatefulPartitionedCall/sequential/resnet50/conv5_block2_1_relu/Relu", "StatefulPartitionedCall/sequential/resnet50/conv5_block2_2_conv/Conv2D_weights", "StatefulPartitionedCall/sequential/resnet50/conv5_block2_2_conv/Conv2D_bn_offset"], "device": "/device:CPU:0", "attr": {"dilations": {"list": {"i": ["1", "1", "1", "1"]}}, "T": {"type": "DT_FLOAT"}, "data_format": {"s": "TkhXQw=="}, "strides": {"list": {"i": ["1", "1", "1", "1"]}}, "use_cudnn_on_gpu": {"b": true}, "explicit_paddings": {"list": {}}, "num_args": {"i": "1"}, "epsilon": {"f": 0.0}, "padding": {"s": "U0FNRQ=="}, "fused_ops": {"list": {"s": ["Qmlhc0FkZA==", "UmVsdQ=="]}}}}, {"name": "StatefulPartitionedCall/sequential/resnet50/conv5_block2_3_bn/FusedBatchNormV3", "op": "_FusedConv2D", "input": ["StatefulPartitionedCall/sequential/resnet50/conv5_block2_2_relu/Relu", "StatefulPartitionedCall/sequential/resnet50/conv5_block2_3_conv/Conv2D_weights", "StatefulPartitionedCall/sequential/resnet50/conv5_block2_3_conv/Conv2D_bn_offset"], "device": "/device:CPU:0", "attr": {"dilations": {"list": {"i": ["1", "1", "1", "1"]}}, "T": {"type": "DT_FLOAT"}, "data_format": {"s": "TkhXQw=="}, "strides": {"list": {"i": ["1", "1", "1", "1"]}}, "use_cudnn_on_gpu": {"b": true}, "explicit_paddings": {"list": {}}, "num_args": {"i": "1"}, "epsilon": {"f": 0.0}, "padding": {"s": "VkFMSUQ="}, "fused_ops": {"list": {"s": ["Qmlhc0FkZA=="]}}}}, {"name": "StatefulPartitionedCall/sequential/resnet50/conv5_block2_add/add", "op": "AddV2", "input": ["StatefulPartitionedCall/sequential/resnet50/conv5_block1_out/Relu", "StatefulPartitionedCall/sequential/resnet50/conv5_block2_3_bn/FusedBatchNormV3"], "attr": {"T": {"type": "DT_FLOAT"}}}, {"name": "StatefulPartitionedCall/sequential/resnet50/conv5_block2_out/Relu", "op": "Relu", "input": ["StatefulPartitionedCall/sequential/resnet50/conv5_block2_add/add"], "attr": {"T": {"type": "DT_FLOAT"}}}, {"name": "StatefulPartitionedCall/sequential/resnet50/conv5_block3_1_relu/Relu", "op": "_FusedConv2D", "input": ["StatefulPartitionedCall/sequential/resnet50/conv5_block2_out/Relu", "StatefulPartitionedCall/sequential/resnet50/conv5_block3_1_conv/Conv2D_weights", "StatefulPartitionedCall/sequential/resnet50/conv5_block3_1_conv/Conv2D_bn_offset"], "device": "/device:CPU:0", "attr": {"dilations": {"list": {"i": ["1", "1", "1", "1"]}}, "T": {"type": "DT_FLOAT"}, "data_format": {"s": "TkhXQw=="}, "strides": {"list": {"i": ["1", "1", "1", "1"]}}, "use_cudnn_on_gpu": {"b": true}, "explicit_paddings": {"list": {}}, "num_args": {"i": "1"}, "epsilon": {"f": 0.0}, "padding": {"s": "VkFMSUQ="}, "fused_ops": {"list": {"s": ["Qmlhc0FkZA==", "UmVsdQ=="]}}}}, {"name": "StatefulPartitionedCall/sequential/resnet50/conv5_block3_2_relu/Relu", "op": "_FusedConv2D", "input": ["StatefulPartitionedCall/sequential/resnet50/conv5_block3_1_relu/Relu", "StatefulPartitionedCall/sequential/resnet50/conv5_block3_2_conv/Conv2D_weights", "StatefulPartitionedCall/sequential/resnet50/conv5_block3_2_conv/Conv2D_bn_offset"], "device": "/device:CPU:0", "attr": {"dilations": {"list": {"i": ["1", "1", "1", "1"]}}, "T": {"type": "DT_FLOAT"}, "data_format": {"s": "TkhXQw=="}, "strides": {"list": {"i": ["1", "1", "1", "1"]}}, "use_cudnn_on_gpu": {"b": true}, "explicit_paddings": {"list": {}}, "num_args": {"i": "1"}, "epsilon": {"f": 0.0}, "padding": {"s": "U0FNRQ=="}, "fused_ops": {"list": {"s": ["Qmlhc0FkZA==", "UmVsdQ=="]}}}}, {"name": "StatefulPartitionedCall/sequential/resnet50/conv5_block3_3_bn/FusedBatchNormV3", "op": "_FusedConv2D", "input": ["StatefulPartitionedCall/sequential/resnet50/conv5_block3_2_relu/Relu", "StatefulPartitionedCall/sequential/resnet50/conv5_block3_3_conv/Conv2D_weights", "StatefulPartitionedCall/sequential/resnet50/conv5_block3_3_conv/Conv2D_bn_offset"], "device": "/device:CPU:0", "attr": {"dilations": {"list": {"i": ["1", "1", "1", "1"]}}, "T": {"type": "DT_FLOAT"}, "data_format": {"s": "TkhXQw=="}, "strides": {"list": {"i": ["1", "1", "1", "1"]}}, "use_cudnn_on_gpu": {"b": true}, "explicit_paddings": {"list": {}}, "num_args": {"i": "1"}, "epsilon": {"f": 0.0}, "padding": {"s": "VkFMSUQ="}, "fused_ops": {"list": {"s": ["Qmlhc0FkZA=="]}}}}, {"name": "StatefulPartitionedCall/sequential/resnet50/conv5_block3_add/add", "op": "AddV2", "input": ["StatefulPartitionedCall/sequential/resnet50/conv5_block2_out/Relu", "StatefulPartitionedCall/sequential/resnet50/conv5_block3_3_bn/FusedBatchNormV3"], "attr": {"T": {"type": "DT_FLOAT"}}}, {"name": "StatefulPartitionedCall/sequential/resnet50/conv5_block3_out/Relu", "op": "Relu", "input": ["StatefulPartitionedCall/sequential/resnet50/conv5_block3_add/add"], "attr": {"T": {"type": "DT_FLOAT"}}}, {"name": "StatefulPartitionedCall/sequential/global_average_pooling2d/Mean", "op": "Mean", "input": ["StatefulPartitionedCall/sequential/resnet50/conv5_block3_out/Relu", "StatefulPartitionedCall/sequential/global_average_pooling2d/Mean/reduction_indices"], "attr": {"keep_dims": {"b": false}, "Tidx": {"type": "DT_INT32"}, "T": {"type": "DT_FLOAT"}}}, {"name": "StatefulPartitionedCall/sequential/dense_1/BiasAdd", "op": "_FusedMatMul", "input": ["StatefulPartitionedCall/sequential/global_average_pooling2d/Mean", "StatefulPartitionedCall/sequential/dense_1/MatMul/ReadVariableOp", "StatefulPartitionedCall/sequential/dense_1/BiasAdd/ReadVariableOp"], "device": "/device:CPU:0", "attr": {"transpose_b": {"b": false}, "T": {"type": "DT_FLOAT"}, "num_args": {"i": "1"}, "epsilon": {"f": 0.0}, "fused_ops": {"list": {"s": ["Qmlhc0FkZA=="]}}, "transpose_a": {"b": false}}}, {"name": "StatefulPartitionedCall/sequential/dense_1/Softmax", "op": "Softmax", "input": ["StatefulPartitionedCall/sequential/dense_1/BiasAdd"], "attr": {"T": {"type": "DT_FLOAT"}}}, {"name": "StatefulPartitionedCall/sequential/activation/Relu", "op": "Relu", "input": ["StatefulPartitionedCall/sequential/dense_1/Softmax"], "attr": {"T": {"type": "DT_FLOAT"}}}, {"name": "Identity", "op": "Identity", "input": ["StatefulPartitionedCall/sequential/activation/Relu"], "attr": {"T": {"type": "DT_FLOAT"}}}], "versions": {"producer": 175}}, "weightsManifest": [{"paths": ["group1-shard1of23.bin", "group1-shard2of23.bin", "group1-shard3of23.bin", "group1-shard4of23.bin", "group1-shard5of23.bin", "group1-shard6of23.bin", "group1-shard7of23.bin", "group1-shard8of23.bin", "group1-shard9of23.bin", "group1-shard10of23.bin", "group1-shard11of23.bin", "group1-shard12of23.bin", "group1-shard13of23.bin", "group1-shard14of23.bin", "group1-shard15of23.bin", "group1-shard16of23.bin", "group1-shard17of23.bin", "group1-shard18of23.bin", "group1-shard19of23.bin", "group1-shard20of23.bin", "group1-shard21of23.bin", "group1-shard22of23.bin", "group1-shard23of23.bin"], "weights": [{"name": "StatefulPartitionedCall/sequential/resnet50/conv1_conv/Conv2D_weights", "shape": [7, 7, 3, 64], "dtype": "float32"}, {"name": "StatefulPartitionedCall/sequential/resnet50/conv5_block2_3_conv/Conv2D_bn_offset", "shape": [2048], "dtype": "float32"}, {"name": "StatefulPartitionedCall/sequential/resnet50/conv1_conv/Conv2D_bn_offset", "shape": [64], "dtype": "float32"}, {"name": "StatefulPartitionedCall/sequential/resnet50/conv2_block1_0_conv/Conv2D_weights", "shape": [1, 1, 64, 256], "dtype": "float32"}, {"name": "StatefulPartitionedCall/sequential/resnet50/conv4_block5_2_conv/Conv2D_weights", "shape": [3, 3, 256, 256], "dtype": "float32"}, {"name": "StatefulPartitionedCall/sequential/resnet50/conv2_block1_0_conv/Conv2D_bn_offset", "shape": [256], "dtype": "float32"}, {"name": "StatefulPartitionedCall/sequential/resnet50/conv2_block1_1_conv/Conv2D_weights", "shape": [1, 1, 64, 64], "dtype": "float32"}, {"name": "StatefulPartitionedCall/sequential/resnet50/conv2_block1_1_conv/Conv2D_bn_offset", "shape": [64], "dtype": "float32"}, {"name": "StatefulPartitionedCall/sequential/resnet50/conv4_block5_2_conv/Conv2D_bn_offset", "shape": [256], "dtype": "float32"}, {"name": "StatefulPartitionedCall/sequential/resnet50/conv2_block1_2_conv/Conv2D_weights", "shape": [3, 3, 64, 64], "dtype": "float32"}, {"name": "StatefulPartitionedCall/sequential/resnet50/conv2_block1_2_conv/Conv2D_bn_offset", "shape": [64], "dtype": "float32"}, {"name": "StatefulPartitionedCall/sequential/resnet50/conv2_block1_3_conv/Conv2D_weights", "shape": [1, 1, 64, 256], "dtype": "float32"}, {"name": "StatefulPartitionedCall/sequential/resnet50/conv4_block5_3_conv/Conv2D_weights", "shape": [1, 1, 256, 1024], "dtype": "float32"}, {"name": "StatefulPartitionedCall/sequential/resnet50/conv2_block1_3_conv/Conv2D_bn_offset", "shape": [256], "dtype": "float32"}, {"name": "StatefulPartitionedCall/sequential/resnet50/conv2_block2_1_conv/Conv2D_weights", "shape": [1, 1, 256, 64], "dtype": "float32"}, {"name": "StatefulPartitionedCall/sequential/resnet50/conv2_block2_1_conv/Conv2D_bn_offset", "shape": [64], "dtype": "float32"}, {"name": "StatefulPartitionedCall/sequential/resnet50/conv4_block5_3_conv/Conv2D_bn_offset", "shape": [1024], "dtype": "float32"}, {"name": "StatefulPartitionedCall/sequential/resnet50/conv2_block2_2_conv/Conv2D_weights", "shape": [3, 3, 64, 64], "dtype": "float32"}, {"name": "StatefulPartitionedCall/sequential/resnet50/conv2_block2_2_conv/Conv2D_bn_offset", "shape": [64], "dtype": "float32"}, {"name": "StatefulPartitionedCall/sequential/resnet50/conv2_block2_3_conv/Conv2D_weights", "shape": [1, 1, 64, 256], "dtype": "float32"}, {"name": "StatefulPartitionedCall/sequential/resnet50/conv2_block2_3_conv/Conv2D_bn_offset", "shape": [256], "dtype": "float32"}, {"name": "StatefulPartitionedCall/sequential/resnet50/conv2_block3_1_conv/Conv2D_weights", "shape": [1, 1, 256, 64], "dtype": "float32"}, {"name": "StatefulPartitionedCall/sequential/resnet50/conv4_block6_1_conv/Conv2D_weights", "shape": [1, 1, 1024, 256], "dtype": "float32"}, {"name": "StatefulPartitionedCall/sequential/resnet50/conv2_block3_1_conv/Conv2D_bn_offset", "shape": [64], "dtype": "float32"}, {"name": "StatefulPartitionedCall/sequential/resnet50/conv5_block3_1_conv/Conv2D_weights", "shape": [1, 1, 2048, 512], "dtype": "float32"}, {"name": "StatefulPartitionedCall/sequential/resnet50/conv2_block3_2_conv/Conv2D_weights", "shape": [3, 3, 64, 64], "dtype": "float32"}, {"name": "StatefulPartitionedCall/sequential/resnet50/conv4_block6_1_conv/Conv2D_bn_offset", "shape": [256], "dtype": "float32"}, {"name": "StatefulPartitionedCall/sequential/resnet50/conv2_block3_2_conv/Conv2D_bn_offset", "shape": [64], "dtype": "float32"}, {"name": "StatefulPartitionedCall/sequential/resnet50/conv2_block3_3_conv/Conv2D_weights", "shape": [1, 1, 64, 256], "dtype": "float32"}, {"name": "StatefulPartitionedCall/sequential/resnet50/conv2_block3_3_conv/Conv2D_bn_offset", "shape": [256], "dtype": "float32"}, {"name": "StatefulPartitionedCall/sequential/resnet50/conv3_block1_0_conv/Conv2D_weights", "shape": [1, 1, 256, 512], "dtype": "float32"}, {"name": "StatefulPartitionedCall/sequential/resnet50/conv4_block6_2_conv/Conv2D_weights", "shape": [3, 3, 256, 256], "dtype": "float32"}, {"name": "StatefulPartitionedCall/sequential/resnet50/conv3_block1_0_conv/Conv2D_bn_offset", "shape": [512], "dtype": "float32"}, {"name": "StatefulPartitionedCall/sequential/resnet50/conv3_block1_1_conv/Conv2D_weights", "shape": [1, 1, 256, 128], "dtype": "float32"}, {"name": "StatefulPartitionedCall/sequential/resnet50/conv5_block3_1_conv/Conv2D_bn_offset", "shape": [512], "dtype": "float32"}, {"name": "StatefulPartitionedCall/sequential/resnet50/conv3_block1_1_conv/Conv2D_bn_offset", "shape": [128], "dtype": "float32"}, {"name": "StatefulPartitionedCall/sequential/resnet50/conv4_block6_2_conv/Conv2D_bn_offset", "shape": [256], "dtype": "float32"}, {"name": "StatefulPartitionedCall/sequential/resnet50/conv3_block1_2_conv/Conv2D_weights", "shape": [3, 3, 128, 128], "dtype": "float32"}, {"name": "StatefulPartitionedCall/sequential/resnet50/conv3_block1_2_conv/Conv2D_bn_offset", "shape": [128], "dtype": "float32"}, {"name": "StatefulPartitionedCall/sequential/resnet50/conv3_block1_3_conv/Conv2D_weights", "shape": [1, 1, 128, 512], "dtype": "float32"}, {"name": "StatefulPartitionedCall/sequential/resnet50/conv4_block6_3_conv/Conv2D_weights", "shape": [1, 1, 256, 1024], "dtype": "float32"}, {"name": "StatefulPartitionedCall/sequential/resnet50/conv3_block1_3_conv/Conv2D_bn_offset", "shape": [512], "dtype": "float32"}, {"name": "StatefulPartitionedCall/sequential/resnet50/conv3_block2_1_conv/Conv2D_weights", "shape": [1, 1, 512, 128], "dtype": "float32"}, {"name": "StatefulPartitionedCall/sequential/resnet50/conv3_block2_1_conv/Conv2D_bn_offset", "shape": [128], "dtype": "float32"}, {"name": "StatefulPartitionedCall/sequential/resnet50/conv4_block6_3_conv/Conv2D_bn_offset", "shape": [1024], "dtype": "float32"}, {"name": "StatefulPartitionedCall/sequential/resnet50/conv3_block2_2_conv/Conv2D_weights", "shape": [3, 3, 128, 128], "dtype": "float32"}, {"name": "StatefulPartitionedCall/sequential/resnet50/conv3_block2_2_conv/Conv2D_bn_offset", "shape": [128], "dtype": "float32"}, {"name": "StatefulPartitionedCall/sequential/resnet50/conv3_block2_3_conv/Conv2D_weights", "shape": [1, 1, 128, 512], "dtype": "float32"}, {"name": "StatefulPartitionedCall/sequential/resnet50/conv3_block2_3_conv/Conv2D_bn_offset", "shape": [512], "dtype": "float32"}, {"name": "StatefulPartitionedCall/sequential/resnet50/conv3_block3_1_conv/Conv2D_weights", "shape": [1, 1, 512, 128], "dtype": "float32"}, {"name": "StatefulPartitionedCall/sequential/resnet50/conv5_block1_0_conv/Conv2D_weights", "shape": [1, 1, 1024, 2048], "dtype": "float32"}, {"name": "StatefulPartitionedCall/sequential/resnet50/conv3_block3_1_conv/Conv2D_bn_offset", "shape": [128], "dtype": "float32"}, {"name": "StatefulPartitionedCall/sequential/resnet50/conv5_block3_2_conv/Conv2D_weights", "shape": [3, 3, 512, 512], "dtype": "float32"}, {"name": "StatefulPartitionedCall/sequential/resnet50/conv3_block3_2_conv/Conv2D_weights", "shape": [3, 3, 128, 128], "dtype": "float32"}, {"name": "StatefulPartitionedCall/sequential/resnet50/conv5_block1_0_conv/Conv2D_bn_offset", "shape": [2048], "dtype": "float32"}, {"name": "StatefulPartitionedCall/sequential/resnet50/conv3_block3_2_conv/Conv2D_bn_offset", "shape": [128], "dtype": "float32"}, {"name": "StatefulPartitionedCall/sequential/resnet50/conv3_block3_3_conv/Conv2D_weights", "shape": [1, 1, 128, 512], "dtype": "float32"}, {"name": "StatefulPartitionedCall/sequential/resnet50/conv5_block1_1_conv/Conv2D_weights", "shape": [1, 1, 1024, 512], "dtype": "float32"}, {"name": "StatefulPartitionedCall/sequential/resnet50/conv3_block3_3_conv/Conv2D_bn_offset", "shape": [512], "dtype": "float32"}, {"name": "StatefulPartitionedCall/sequential/resnet50/conv3_block4_1_conv/Conv2D_weights", "shape": [1, 1, 512, 128], "dtype": "float32"}, {"name": "StatefulPartitionedCall/sequential/resnet50/conv3_block4_1_conv/Conv2D_bn_offset", "shape": [128], "dtype": "float32"}, {"name": "StatefulPartitionedCall/sequential/resnet50/conv5_block1_1_conv/Conv2D_bn_offset", "shape": [512], "dtype": "float32"}, {"name": "StatefulPartitionedCall/sequential/resnet50/conv3_block4_2_conv/Conv2D_weights", "shape": [3, 3, 128, 128], "dtype": "float32"}, {"name": "StatefulPartitionedCall/sequential/resnet50/conv5_block3_2_conv/Conv2D_bn_offset", "shape": [512], "dtype": "float32"}, {"name": "StatefulPartitionedCall/sequential/resnet50/conv3_block4_2_conv/Conv2D_bn_offset", "shape": [128], "dtype": "float32"}, {"name": "StatefulPartitionedCall/sequential/resnet50/conv3_block4_3_conv/Conv2D_weights", "shape": [1, 1, 128, 512], "dtype": "float32"}, {"name": "StatefulPartitionedCall/sequential/resnet50/conv5_block1_2_conv/Conv2D_weights", "shape": [3, 3, 512, 512], "dtype": "float32"}, {"name": "StatefulPartitionedCall/sequential/resnet50/conv3_block4_3_conv/Conv2D_bn_offset", "shape": [512], "dtype": "float32"}, {"name": "StatefulPartitionedCall/sequential/resnet50/conv4_block1_0_conv/Conv2D_weights", "shape": [1, 1, 512, 1024], "dtype": "float32"}, {"name": "StatefulPartitionedCall/sequential/resnet50/conv4_block1_0_conv/Conv2D_bn_offset", "shape": [1024], "dtype": "float32"}, {"name": "StatefulPartitionedCall/sequential/resnet50/conv4_block1_1_conv/Conv2D_weights", "shape": [1, 1, 512, 256], "dtype": "float32"}, {"name": "StatefulPartitionedCall/sequential/resnet50/conv5_block1_2_conv/Conv2D_bn_offset", "shape": [512], "dtype": "float32"}, {"name": "StatefulPartitionedCall/sequential/resnet50/conv4_block1_1_conv/Conv2D_bn_offset", "shape": [256], "dtype": "float32"}, {"name": "StatefulPartitionedCall/sequential/resnet50/conv4_block1_2_conv/Conv2D_weights", "shape": [3, 3, 256, 256], "dtype": "float32"}, {"name": "StatefulPartitionedCall/sequential/resnet50/conv4_block1_2_conv/Conv2D_bn_offset", "shape": [256], "dtype": "float32"}, {"name": "StatefulPartitionedCall/sequential/resnet50/conv5_block1_3_conv/Conv2D_weights", "shape": [1, 1, 512, 2048], "dtype": "float32"}, {"name": "StatefulPartitionedCall/sequential/resnet50/conv4_block1_3_conv/Conv2D_weights", "shape": [1, 1, 256, 1024], "dtype": "float32"}, {"name": "StatefulPartitionedCall/sequential/resnet50/conv5_block3_3_conv/Conv2D_weights", "shape": [1, 1, 512, 2048], "dtype": "float32"}, {"name": "StatefulPartitionedCall/sequential/resnet50/conv4_block1_3_conv/Conv2D_bn_offset", "shape": [1024], "dtype": "float32"}, {"name": "StatefulPartitionedCall/sequential/resnet50/conv4_block2_1_conv/Conv2D_weights", "shape": [1, 1, 1024, 256], "dtype": "float32"}, {"name": "StatefulPartitionedCall/sequential/resnet50/conv5_block1_3_conv/Conv2D_bn_offset", "shape": [2048], "dtype": "float32"}, {"name": "StatefulPartitionedCall/sequential/resnet50/conv4_block2_1_conv/Conv2D_bn_offset", "shape": [256], "dtype": "float32"}, {"name": "StatefulPartitionedCall/sequential/resnet50/conv4_block2_2_conv/Conv2D_weights", "shape": [3, 3, 256, 256], "dtype": "float32"}, {"name": "StatefulPartitionedCall/sequential/resnet50/conv4_block2_2_conv/Conv2D_bn_offset", "shape": [256], "dtype": "float32"}, {"name": "StatefulPartitionedCall/sequential/resnet50/conv4_block2_3_conv/Conv2D_weights", "shape": [1, 1, 256, 1024], "dtype": "float32"}, {"name": "StatefulPartitionedCall/sequential/resnet50/conv5_block2_1_conv/Conv2D_weights", "shape": [1, 1, 2048, 512], "dtype": "float32"}, {"name": "StatefulPartitionedCall/sequential/resnet50/conv4_block2_3_conv/Conv2D_bn_offset", "shape": [1024], "dtype": "float32"}, {"name": "StatefulPartitionedCall/sequential/resnet50/conv4_block3_1_conv/Conv2D_weights", "shape": [1, 1, 1024, 256], "dtype": "float32"}, {"name": "StatefulPartitionedCall/sequential/resnet50/conv4_block3_1_conv/Conv2D_bn_offset", "shape": [256], "dtype": "float32"}, {"name": "StatefulPartitionedCall/sequential/resnet50/conv5_block2_1_conv/Conv2D_bn_offset", "shape": [512], "dtype": "float32"}, {"name": "StatefulPartitionedCall/sequential/resnet50/conv4_block3_2_conv/Conv2D_weights", "shape": [3, 3, 256, 256], "dtype": "float32"}, {"name": "StatefulPartitionedCall/sequential/resnet50/conv5_block3_3_conv/Conv2D_bn_offset", "shape": [2048], "dtype": "float32"}, {"name": "StatefulPartitionedCall/sequential/resnet50/conv4_block3_2_conv/Conv2D_bn_offset", "shape": [256], "dtype": "float32"}, {"name": "StatefulPartitionedCall/sequential/resnet50/conv4_block3_3_conv/Conv2D_weights", "shape": [1, 1, 256, 1024], "dtype": "float32"}, {"name": "StatefulPartitionedCall/sequential/resnet50/conv5_block2_2_conv/Conv2D_weights", "shape": [3, 3, 512, 512], "dtype": "float32"}, {"name": "StatefulPartitionedCall/sequential/resnet50/conv4_block3_3_conv/Conv2D_bn_offset", "shape": [1024], "dtype": "float32"}, {"name": "StatefulPartitionedCall/sequential/resnet50/conv4_block4_1_conv/Conv2D_weights", "shape": [1, 1, 1024, 256], "dtype": "float32"}, {"name": "StatefulPartitionedCall/sequential/resnet50/conv4_block4_1_conv/Conv2D_bn_offset", "shape": [256], "dtype": "float32"}, {"name": "StatefulPartitionedCall/sequential/resnet50/conv5_block2_2_conv/Conv2D_bn_offset", "shape": [512], "dtype": "float32"}, {"name": "StatefulPartitionedCall/sequential/resnet50/conv4_block4_2_conv/Conv2D_weights", "shape": [3, 3, 256, 256], "dtype": "float32"}, {"name": "StatefulPartitionedCall/sequential/resnet50/conv4_block4_2_conv/Conv2D_bn_offset", "shape": [256], "dtype": "float32"}, {"name": "StatefulPartitionedCall/sequential/resnet50/conv4_block4_3_conv/Conv2D_weights", "shape": [1, 1, 256, 1024], "dtype": "float32"}, {"name": "StatefulPartitionedCall/sequential/resnet50/conv5_block2_3_conv/Conv2D_weights", "shape": [1, 1, 512, 2048], "dtype": "float32"}, {"name": "StatefulPartitionedCall/sequential/resnet50/conv4_block4_3_conv/Conv2D_bn_offset", "shape": [1024], "dtype": "float32"}, {"name": "StatefulPartitionedCall/sequential/resnet50/conv4_block5_1_conv/Conv2D_weights", "shape": [1, 1, 1024, 256], "dtype": "float32"}, {"name": "StatefulPartitionedCall/sequential/resnet50/conv4_block5_1_conv/Conv2D_bn_offset", "shape": [256], "dtype": "float32"}, {"name": "StatefulPartitionedCall/sequential/resnet50/conv1_pad/Pad/paddings", "shape": [4, 2], "dtype": "int32"}, {"name": "StatefulPartitionedCall/sequential/resnet50/pool1_pad/Pad/paddings", "shape": [4, 2], "dtype": "int32"}, {"name": "StatefulPartitionedCall/sequential/global_average_pooling2d/Mean/reduction_indices", "shape": [2], "dtype": "int32"}, {"name": "StatefulPartitionedCall/sequential/dense_1/MatMul/ReadVariableOp", "shape": [2048, 10], "dtype": "float32"}, {"name": "StatefulPartitionedCall/sequential/dense_1/BiasAdd/ReadVariableOp", "shape": [10], "dtype": "float32"}]}]}